cnn_weights.pth (torch, 497221 bytes, 10 tensors)

layer.0.weight f4 [16, 1, 5, 5]
0	0x3dca7875	0.098862566
1	0x3db36824	0.087600976
2	0x3b6dc640	0.0036281496
3	0x3e124ba1	0.14286663
4	0xbd6dea74	-0.05808492
5	0x3d9d8b3b	0.07692572
6	0x3e398c01	0.18119814
7	0x3ccde5d8	0.025134012
8	0x3d8e8a75	0.06960002
9	0x3de96594	0.113963276
10	0xbe452b17	-0.19254719
11	0x3dd2f811	0.10301221
12	0xbe79a864	-0.24380642
13	0x3ccca1ad	0.024979437
14	0xbe0aa5e4	-0.13539845
15	0xbd76e3fb	-0.060276013
16	0x3cf89e42	0.0303489
17	0xbb0b61c4	-0.002126799
18	0x3d9c3e86	0.07629113
19	0x3d421a0a	0.047388114
20	0x3b9307dc	0.004487021
21	0xbd1c9124	-0.038224354
22	0x3de60e5d	0.11233208
23	0xbd4bc896	-0.04975184
24	0x3cc8bf00	0.024505138
25	0x3dc1e042	0.09466602
26	0x3e64c808	0.22341931
27	0xbd0fcbb6	-0.035106383
28	0xbe631c68	-0.22178805
29	0xbee0bc5c	-0.43893707
30	0xbdba3e85	-0.09093956
31	0xbd0dea00	-0.034646988
32	0x3d4532b2	0.04814405
33	0x3e97a6b8	0.29619384
34	0xbe5208a3	-0.20511107
35	0xbe8d6693	-0.2761732
36	0xbdbec3c6	-0.093146846
37	0xbdacd85c	-0.08439705
38	0x3e9906ed	0.29888096
39	0x3e8d69c5	0.27619758
40	0x39b9666a	0.00035362254
41	0x3e460976	0.19339547
42	0xbe14183a	-0.14462367
43	0x3d0aa75f	0.033851024
44	0xbc0b8657	-0.008515916
45	0xbdfef4be	-0.124490246
46	0x3d59f690	0.053213656
47	0x3e4b7d2e	0.19871971
48	0xbdce0498	-0.1005947
49	0x3e53287f	0.20620917
50	0x3d84959c	0.06473848
51	0x3d6e512f	0.05818289
52	0x3e66500b	0.22491471
53	0x3a6fa24f	0.00091413123
54	0x3c8f2fa8	0.017478779
55	0xbe4c8693	-0.19973211
56	0x3e55313c	0.20819563
57	0x3e4f184a	0.2022411
58	0xbdbd51b4	-0.09244099
59	0x3c9c64d5	0.01909105
60	0xbe43d963	-0.19125895
61	0xbe0f4308	-0.13990414
62	0x3dd923fd	0.10602567
63	0xbe26ca10	-0.16288018
64	0xbac8ea3f	-0.00153286
65	0x3e11fa21	0.14255573
66	0x3e6d7421	0.23188831
67	0xbe09075c	-0.13381714
68	0xbe39743e	-0.18110749
69	0x3e0c0f86	0.13677797
70	0x3e518bd5	0.20463498
71	0x3e26cbe0	0.1628871
72	0x3d04aa3a	0.032388903
73	0xbe884778	-0.26617026
74	0xbe8f6a57	-0.28010818
75	0x3d35b017	0.044357385
76	0xbded9997	-0.116015606
77	0xbe08c7dd	-0.13357492
78	0xbe3d67db	-0.18496649
79	0xbde1f2af	-0.11032616
80	0x3dc600b5	0.096681036
81	0x3e3ab77d	0.18234058
82	0x3e4f2c03	0.20231633
83	0xbce33aa0	-0.027737916
84	0xbe6faa9f	-0.2340493
85	0xbcccc6e6	-0.024997186
86	0x3e410a45	0.18851574
87	0xbd402d8d	-0.04691844
88	0x3e21a18a	0.15784279
89	0xbe2b7db3	-0.16747169
90	0xbdb79f23	-0.089659
91	0x3e8d62cb	0.27614436
92	0x3cf847da	0.030307699
93	0x3e6c5da2	0.23082593
94	0x3a50a82a	0.0007959629
95	0xbe0eee38	-0.1395806
96	0x3cf2cb25	0.029637882
97	0x3e0be4de	0.13661525
98	0x3de0bd1f	0.10973572
99	0xbe8b0a0a	-0.27156097
100	0xbde10cfd	-0.109888054
101	0xbe123a46	-0.14280042
102	0xbdefd003	-0.11709597
103	0x3ea1bf1e	0.31591123
104	0xbc3390ec	-0.010959845
105	0xbcdcfc95	-0.02697591
106	0xbeaa453c	-0.33255947
107	0xbe3b4da4	-0.18291336
108	0x3e7695e7	0.2408062
109	0x3d668b83	0.056285392
110	0xbcaa280d	-0.02077105
111	0xbd2ac5be	-0.041692488
112	0xbd8c9f65	-0.068663396
113	0x3ea62bd6	0.3245532
114	0x3e022776	0.12710366
115	0x3c49c96c	0.012316089
116	0xbde1dbf2	-0.11028279
117	0x3d351d3a	0.044217326
118	0x3e160fdb	0.14654486
119	0xbda17180	-0.078829765
120	0xbe12077d	-0.14260669
121	0xbe24f7e4	-0.16110188
122	0x3e0c818b	0.13721292
123	0x3e32e551	0.1747029
124	0xbd989253	-0.07449784
125	0x3d841082	0.06448461
126	0x3e94c221	0.2905436
127	0x3da1a8ec	0.078935474
128	0xbe96e064	-0.2946807
129	0xbdfeff36	-0.124510214
130	0xbdba5f75	-0.09100238
131	0x3e529a85	0.20566757
132	0x3e55669f	0.20839928
133	0xbe3e2087	-0.18567096
134	0xbe3646d7	-0.17800461
135	0x3e033f6b	0.12817161
136	0x3de9d847	0.11418205
137	0x3c90a56c	0.017657004
138	0xbe864c34	-0.26230013
139	0x3d031644	0.032003656
140	0xba29f2fd	-0.00064830465
141	0x3ac3d2ba	0.0014940121
142	0x3e8cd950	0.27509546
143	0xbe13fe2e	-0.1445243
144	0x3d665456	0.056232773
145	0xbdebbea0	-0.11510968
146	0xbe01ed74	-0.12688237
147	0x3c808b6a	0.015691478
148	0xbe80c20d	-0.2514805
149	0x3e9bdd4f	0.30442283
150	0xbe9d9ee0	-0.30785275
151	0xbf8eb7e3	-1.1149868
152	0xbf8f4725	-1.1193587
153	0xbdea6df1	-0.11446751
154	0x3d2e1e12	0.042509146
155	0xbe02bcd5	-0.12767346
156	0xbf402743	-0.7505991
157	0xbf46ea5a	-0.7770134
158	0x3df544a3	0.11975982
159	0xbdf60e5c	-0.120144576
160	0x3d0fa386	0.035068057
161	0xbc593261	-0.01325664
162	0x3d6b8fa4	0.057510033
163	0x3e5540bd	0.20825477
164	0xbd1d9733	-0.038474273
165	0xbd5cc1d0	-0.05389577
166	0x3e3758b1	0.17904927
167	0x3e6fa660	0.23403311
168	0xbdd3f944	-0.10350278
169	0xbe307554	-0.17232257
170	0x3e45485f	0.19265889
171	0xbde0d41f	-0.10977959
172	0xbdef07ee	-0.11671434
173	0x3d954572	0.07288636
174	0x3d6df2c1	0.058092836
175	0xbe718edb	-0.23589651
176	0xbea39f17	-0.31957313
177	0xbe89209c	-0.2678269
178	0xbe3cbe98	-0.18432081
179	0xbe9e378e	-0.3090176
180	0x3d91ecdc	0.071252555
181	0x3d882b89	0.06648929
182	0x3e529d99	0.20567931
183	0x3df07b0d	0.1174222
184	0xbdd1e4ea	-0.1024874
185	0x3e6d0ebc	0.23150152
186	0x3e07d93f	0.13266467
187	0x3e694ae0	0.22782469
188	0xbd8d0c07	-0.0688706
189	0xbe02f206	-0.12787637
190	0x3b06c479	0.0020563884
191	0x3e2195ec	0.15779847
192	0x3e677d32	0.22606352
193	0x3d09c682	0.033636577
194	0xbc08f44f	-0.008359029
195	0xbd87ff8c	-0.066405386
196	0xbdbecd13	-0.093164586
197	0xbc2e4498	-0.010636471
198	0xbdfb7269	-0.122776814
199	0x3e426255	0.18982823
200	0x3e9560b5	0.29175344
201	0xbd0a15cd	-0.033712197
202	0x3e124619	0.14284553
203	0xbe5bf537	-0.21480261
204	0x3d357c68	0.044308096
205	0x3dd528bf	0.10408162
206	0xbe2cf720	-0.16891146
207	0xbe7daf14	-0.24773818
208	0xbe2d12fc	-0.16901773
209	0xbe97974f	-0.29607627
210	0xbd9798e0	-0.074022055
211	0x3e4bdf85	0.19909485
212	0x3da6ba71	0.081410296
213	0x3de04d76	0.109522745
214	0xbdf92132	-0.12164535
215	0x3e058f17	0.13042866
216	0x3e7a9f1d	0.2447476
217	0x3e504a31	0.20340802
218	0x3d332dc7	0.04374483
219	0x3df50057	0.119629554
220	0xbe45f767	-0.19332658
221	0x3d9fde24	0.07806042
222	0xbe3e7544	-0.18599421
223	0x3e866415	0.26248232
224	0x3d066040	0.032806635
225	0x3e3849ee	0.17996952
226	0x3d45e54a	0.04831437
227	0x3e9dd815	0.3082892
228	0x3db56901	0.088579185
229	0x3e91100a	0.2833255
230	0xbd96c56f	-0.07361876
231	0xbe3229cd	-0.17398758
232	0x3e448eab	0.19195049
233	0x3e5c4cb8	0.21513641
234	0xbe0b228d	-0.13587399
235	0x3e0ab396	0.13545069
236	0xbe33e3f5	-0.17567427
237	0xbe3c7c49	-0.18406786
238	0x3cacef29	0.021110134
239	0x3b955881	0.0045576696
240	0x3d783fb6	0.060607634
241	0xbe664496	-0.22487101
242	0xbe534b2e	-0.20634148
243	0xbddea412	-0.10871138
244	0x3d08338d	0.033252288
245	0x3e0c9ac0	0.13730907
246	0xbe26d15c	-0.16290802
247	0xbe349d1a	-0.17638054
248	0x3c654915	0.013994475
249	0xbdb2a34d	-0.087225534
250	0xbaa6e748	-0.0012733722
251	0xbe9a04ba	-0.3008173
252	0xbea19f64	-0.31566918
253	0x3d9cd071	0.076569445
254	0x3e584198	0.21118772
255	0xbb89ab74	-0.004201347

layer.0.bias f4 [16]
0	0xbd97731f	-0.073950045
1	0xbdcf4dc7	-0.10122257
2	0x3d35c87a	0.044380642
3	0x3c875486	0.016519796
4	0x3df9d154	0.12198129
5	0x3d5fc3f6	0.054630242
6	0x3e94badc	0.29048812
7	0x3e69c224	0.22827965
8	0xbe350ae5	-0.17679937
9	0x3d640d4d	0.055676747
10	0x3cb4d0ed	0.02207228
11	0x3e815839	0.2526262
12	0xbdba1ccc	-0.09087524
13	0xbe50a7e5	-0.20376547
14	0x3df73f69	0.120726414
15	0x3ceff66b	0.029292306

layer.2.weight f4 [32, 16, 5, 5]
0	0xbde24dec	-0.11050019
1	0xbe17df10	-0.14831185
2	0xbc15ec52	-0.009150581
3	0xbd39105b	-0.045181613
4	0xbd874347	-0.06604629
5	0xbeb59293	-0.3546339
6	0xbe85ad5f	-0.26108834
7	0xbe4881a9	-0.19580711
8	0xbde642cf	-0.112432115
9	0xbdc0afbb	-0.09408518
10	0xbeb54ca0	-0.35410023
11	0xbe868aaa	-0.26277667
12	0xbe81c0ac	-0.2534231
13	0xbe18bcd2	-0.14915779
14	0xbd65b90e	-0.056084685
15	0xbea5c65c	-0.323779
16	0xbe291399	-0.16511382
17	0xbdd94350	-0.10608542
18	0xbdee3900	-0.11631966
19	0xbd762945	-0.06009795
20	0xbe51bc66	-0.20482025
21	0xbe7384d4	-0.23781139
22	0xbc49a892	-0.012308257
23	0xbd5492d5	-0.051897842
24	0x3cf6f97c	0.03014826
25	0xbd91e013	-0.07122817
26	0xbe9e122e	-0.30873245
27	0xbcbc7aa6	-0.023007702
28	0x3db78255	0.08960406
29	0xbe05528a	-0.13019767
30	0xbe8aa90d	-0.270821
31	0xbe6251a1	-0.22101451
32	0x3dbe5ac3	0.09294655
33	0x3dda83fc	0.10669705
34	0xbdb9200d	-0.09039316
35	0xbd611e47	-0.054960515
36	0x3dce48da	0.10072489
37	0x3d2980f2	0.041382737
38	0xbd1211be	-0.03566145
39	0xbe3dfe6f	-0.1855409
40	0xbe22e5b6	-0.1590794
41	0xbd557e0c	-0.05212216
42	0x3e2aaab7	0.16666685
43	0xbb2244ec	-0.002476032
44	0xbe117e01	-0.14208223
45	0xbe065f55	-0.13122304
46	0xbdec1555	-0.11527506
47	0x3d80bc2b	0.0628589
48	0x3cd7e927	0.026356293
49	0xbe1900a0	-0.14941645
50	0xbe39e38a	-0.18153206
51	0xbe0fd4a1	-0.14045955
52	0xbe910308	-0.28322625
53	0xbd99f383	-0.07517149
54	0x3d84ee78	0.06490797
55	0xbe1b6e39	-0.15178765
56	0xbe5b65b3	-0.21425514
57	0xbe43b06e	-0.19110271
58	0x3d875128	0.06607276
59	0x3da8295b	0.08211013
60	0xbdc9ed0f	-0.098596685
61	0xbe5cb88e	-0.21554777
62	0xbe0f159b	-0.13973086
63	0x3dc6a206	0.09698872
64	0x3df4f6dc	0.11961147
65	0xbe8fc25f	-0.2807798
66	0xbe8e9ad1	-0.2785249
67	0xbe004749	-0.12527193
68	0x3dc56753	0.09638848
69	0x3d0bd5eb	0.034139555
70	0xbe281f6f	-0.16418241
71	0xbe94a82c	-0.29034555
72	0xbd998077	-0.07495206
73	0x3d81ee44	0.06344274
74	0x3df63ea7	0.12023669
75	0xbe15ae91	-0.14617373
76	0xbec0e7ac	-0.37676752
77	0xbe4f8faf	-0.20269655
78	0xbdd066a9	-0.10175831
79	0xbd9df010	-0.07711804
80	0xbe3d5e4a	-0.18493
81	0xbe1264e2	-0.14296296
82	0xbd085525	-0.033284325
83	0x3c1cc7e4	0.009569142
84	0xbd8c4ecf	-0.06850969
85	0xbe00a591	-0.12563159
86	0xbdb9a227	-0.09064131
87	0xbde06a84	-0.10957816
88	0x3d7ca041	0.061676268
89	0x3d6a6fca	0.057235517
90	0xbe1c2aa9	-0.15250649
91	0xbe5ee864	-0.21768337
92	0xbd8fb022	-0.070160165
93	0xbcea9f9f	-0.028640566
94	0x3e222c34	0.15837175
95	0xbe1b2804	-0.15151983
96	0xbeab5bfe	-0.33468622
97	0xbd89569c	-0.067059726
98	0x3d100ff8	0.03517148
99	0x3de4a060	0.111634016
100	0xbe4ff30f	-0.20307563
101	0xbdd0304a	-0.101654604
102	0xbad81d46	-0.0016488216
103	0x3d53cf98	0.05171165
104	0x3c950587	0.018191112
105	0xbe88b536	-0.26700753
106	0xbd6ac6d1	-0.057318512
107	0x3da32708	0.07966429
108	0x3dab3fe6	0.08361797
109	0xbd204937	-0.039132323
110	0xbdf662cf	-0.12030565
111	0x3d5bb927	0.053643372
112	0x3dd69722	0.10478045
113	0x3cb22008	0.02174379
114	0xbd13668e	-0.035986476
115	0xbd3c5309	-0.045977626
116	0x3db44bf5	0.0880355
117	0x3d91ed6b	0.07125362
118	0xbc56317c	-0.013073321
119	0xbe280a06	-0.16410074
120	0xbd2b0b10	-0.041758597
121	0x3dd4b4fa	0.10386081
122	0x3bee3560	0.0072695464
123	0xbdd99685	-0.106244124
124	0xbdfdc33c	-0.123907536
125	0x3e559d22	0.20860723
126	0x3e833150	0.2562356
127	0x3d520cf8	0.0512819
128	0xbe0c2582	-0.13686183
129	0xbe217bdd	-0.15769906
130	0x3e810581	0.25199512
131	0x3e2cd356	0.16877493
132	0xbdfbe5c8	-0.12299687
133	0xbd16de0a	-0.036832847
134	0x3d97a3ca	0.07404287
135	0x3d9f4627	0.077770524
136	0x3d0298c5	0.031883974
137	0xbe5a9f62	-0.21349862
138	0x3ccb5676	0.024821501
139	0x3e3cda30	0.18442607
140	0xbd910b6d	-0.070822574
141	0x3d834d97	0.064112835
142	0xbe86a95c	-0.26301086
143	0x3e611d91	0.21983935
144	0x3e52e7d6	0.20596251
145	0xbe56c911	-0.20975138
146	0xbe2e22ad	-0.17005415
147	0xbd26f9c4	-0.04076554
148	0x3e880726	0.26567954
149	0x3e80612f	0.25074145
150	0x3d03ac0b	0.032146495
151	0x3e085c99	0.13316573
152	0x3e6ea2ef	0.23304342
153	0x3dafa628	0.08576614
154	0x3e16536e	0.14680263
155	0x3e0c8779	0.13723554
156	0x3e346308	0.17615902
157	0x3e4d63e2	0.20057634
158	0x3e5ccd3c	0.21562666
159	0x3e2533ae	0.16132995
160	0x3dd3e2ca	0.10345991
161	0x3e34d828	0.17660582
162	0x3e972728	0.2952206
163	0x3e54dba0	0.20786905
164	0xbc1ff8eb	-0.0097639365
165	0xb9831b5c	-0.0002500665
166	0x3eb08cf4	0.3448254
167	0x3e4f085a	0.2021803
168	0xbd723cf9	-0.05914018
169	0xbdfc389b	-0.12315484
170	0x3e4fdb48	0.20298493
171	0x3ea17827	0.3153698
172	0xbcad745b	-0.021173647
173	0xbd9fcb10	-0.07802403
174	0xbe6dc9fa	-0.23221579
175	0xbd118f56	-0.035537086
176	0x3af3461e	0.0018560325
177	0xbe0ba82e	-0.13638374
178	0xbdae9a00	-0.08525467
179	0xbc2411ad	-0.01001398
180	0x3dc2948c	0.09500989
181	0x3c8e2c41	0.017355086
182	0xbd8ab8a5	-0.067734994
183	0xbc53d4c0	-0.0129291415
184	0x3df499ba	0.119433835
185	0xbaba9b96	-0.0014237042
186	0xbdda8e26	-0.10671644
187	0x3cd22c7d	0.02565598
188	0x3dc53450	0.096291184
189	0x3e31348b	0.173052
190	0xbc80bbd7	-0.015714569
191	0xbcae94a8	-0.02131112
192	0x3cf9d31a	0.030496169
193	0x3e09f538	0.1347245
194	0x3d84464b	0.0645872
195	0xbda6f6e4	-0.081525594
196	0xbd0e0216	-0.034669958
197	0x3d8721a8	0.06598216
198	0x3dcbf4aa	0.09958775
199	0x3d6d179e	0.05788385
200	0xbda5c7bc	-0.08094737
201	0x3c72294b	0.014780353
202	0x3c8c0082	0.017090086
203	0xbdb2846a	-0.08716662
204	0xbdee3167	-0.116305165
205	0x3b0a231a	0.002107805
206	0xbe1edd03	-0.15513997
207	0xbe80dc23	-0.2516795
208	0xbe2f965e	-0.17147204
209	0xbd7f2263	-0.062288653
210	0x3d7635ed	0.06011002
211	0xbe54ba1a	-0.20774117
212	0xbdc838e0	-0.09776473
213	0xbce8bd1e	-0.02841049
214	0x3d34c3a9	0.04413191
215	0xbddec57e	-0.108775124
216	0xbe9af4ff	-0.30265042
217	0xbbaa0c48	-0.0051894523
218	0x3986a1f6	0.00025679142
219	0x3d540474	0.05176206
220	0x3dd03d1d	0.101679064
221	0x3ceaaf6b	0.028648099
222	0x3ddbcfd0	0.107329965
223	0x3c0746de	0.008256642
224	0x3e32323a	0.17401972
225	0x3d9a394a	0.07530458
226	0x3e3adfbf	0.18249415
227	0x3d0fa6d3	0.035071205
228	0xbe050069	-0.12988438
229	0xbea0783f	-0.3134174
230	0x3cd5a6e7	0.026080562
231	0xbd480290	-0.04883057
232	0xbe6d3b9a	-0.23167267
233	0xbeaaeb72	-0.33382756
234	0xbe0653a5	-0.13117845
235	0xbe52abe8	-0.2057339
236	0xbe9e0d85	-0.3086969
237	0xbe82e7ec	-0.25567567
238	0xbe95b6fc	-0.29241168
239	0xbe04c598	-0.12966001
240	0xbe851e20	-0.25999546
241	0xbddea187	-0.10870653
242	0xbe254f40	-0.16143513
243	0xbe1f43b9	-0.15553178
244	0x3de8380d	0.11338816
245	0xbc726fdf	-0.01479718
246	0xbdc7b0ed	-0.09750543
247	0xbdc24f7c	-0.09487817
248	0xbe218852	-0.15774658
249	0x3df584f5	0.1198825
250	0xbe56bda8	-0.20970786
251	0x3c101907	0.0087950295
252	0x3d4bb8bd	0.049736727
253	0x3dcfb71e	0.10142349
254	0xbca89565	-0.02057905
255	0xbdac0ec7	-0.08401256

layer.2.bias f4 [32]
0	0x3c522203	0.012825492
1	0x3cfec92c	0.031101786
2	0xbd8121b2	-0.06305255
3	0xbc58d462	-0.01323423
4	0xbc89ca5a	-0.016820122
5	0x3e45ba3d	0.19309326
6	0x3cac4367	0.021028234
7	0x3d245500	0.040120125
8	0x3dec87f4	0.115493685
9	0xbd9cfc9c	-0.07665369
10	0x3bb25b7e	0.0054430356
11	0x3cf44da7	0.029822184
12	0x3e020453	0.12696962
13	0xbbd8cb2e	-0.006616018
14	0xbcbc281b	-0.022968343
15	0xbda77af9	-0.08177752
16	0xbbaf8fa6	-0.0053577004
17	0x3e15df01	0.1463585
18	0x3da2df67	0.07952767
19	0x3ddf18e4	0.108934194
20	0x3d71325b	0.058885913
21	0x3e27d0d4	0.16388255
22	0x3cd0ead8	0.025502607
23	0xbd8ec2b7	-0.06970733
24	0x3deaf527	0.1147254
25	0x3d72e829	0.059303436
26	0xbd75fa35	-0.06005307
27	0x3e839413	0.2569891
28	0xbd46998e	-0.048486285
29	0xbd563c74	-0.052303746
30	0xbdc92496	-0.09821431
31	0x3d32e392	0.04367406

layer.5.weight f4 [64, 32, 5, 5]
0	0x3c9601d4	0.018311419
1	0xbcad9f5e	-0.021194156
2	0xbe63fffa	-0.22265616
3	0x3d515ec8	0.05111578
4	0x3d8264cf	0.06366884
5	0xbd21253a	-0.039342143
6	0x3d91d928	0.071214974
7	0xbd1bb798	-0.038016886
8	0xbd92578e	-0.07145606
9	0x3e19dbcc	0.15025252
10	0xbc758edb	-0.014987673
11	0x3e366713	0.17812757
12	0xbdafd112	-0.08584799
13	0xbe335e41	-0.17516424
14	0x3d87ca56	0.066303894
15	0xbb9ed81d	-0.00484754
16	0x3e61b324	0.22040993
17	0xbe31c45e	-0.17360064
18	0xbe7b0aa0	-0.24515772
19	0xbe5eed06	-0.21770105
20	0x3bea0d90	0.00714273
21	0x3db4e1fd	0.08832166
22	0xbd0f1494	-0.034931734
23	0xbe671bce	-0.225692
24	0xbe6cdfd8	-0.23132265
25	0x3dfeafe9	0.12435896
26	0xbdfb0622	-0.12257029
27	0xbe4b72cf	-0.19868015
28	0xbe141b81	-0.14463617
29	0xbcd89a8d	-0.026440883
30	0x3d441a7a	0.047876813
31	0xbd18378d	-0.037162352
32	0xbdd0c917	-0.10194605
33	0x3d89d275	0.067295946
34	0x39b39f72	0.00034260337
35	0x3c4e5fd6	0.012596091
36	0xbd9e1193	-0.07718196
37	0xbe4aa95c	-0.19791168
38	0xbd053291	-0.032518927
39	0x3d8538ad	0.06504951
40	0x3cfa0838	0.030521497
41	0x3d70681f	0.058693048
42	0xbe5a359b	-0.21309511
43	0xbdcfe28e	-0.10150634
44	0xbd13e2bc	-0.036104903
45	0xbaf441af	-0.0018635298
46	0xbe20e0d8	-0.15710771
47	0xbded6c16	-0.115928814
48	0x3cb28452	0.02179161
49	0xbda1376a	-0.078718975
50	0x3d44a134	0.048005298
51	0x3b2f6a39	0.0026766194
52	0xbc2665cb	-0.010156105
53	0x3d0c99be	0.034326307
54	0xbd024221	-0.031801347
55	0x3b89c178	0.0042039715
56	0x3ac803d0	0.0015259925
57	0xbce1ab17	-0.027547402
58	0x3cb7a0ed	0.022415603
59	0x3b61f82c	0.0034480197
60	0xbc06c7af	-0.008226319
61	0xba9ff762	-0.0012204463
62	0xbcab46b4	-0.020907737
63	0xbce95935	-0.02848492
64	0x3d047a96	0.03234347
65	0x3ceb15ae	0.028696861
66	0xbcb68032	-0.022277925
67	0xbb7a44c2	-0.0038187956
68	0xbc5f32b4	-0.013622928
69	0x3d0bd924	0.03414263
70	0xbc07fcf2	-0.008300053
71	0x3cba450c	0.022738002
72	0x3a271258	0.0006373278
73	0x3c99f8b9	0.018795358
74	0xbcc8dfc0	-0.024520755
75	0x3da04d5d	0.07827256
76	0x3d596dd7	0.053083267
77	0xbe8a0352	-0.26955658
78	0x3db77c82	0.08959295
79	0x3d8d285c	0.068924636
80	0x3ccab639	0.024745094
81	0x3d8c95b2	0.068644896
82	0xbd9889ea	-0.0744818
83	0x3dd4204a	0.10357721
84	0x3ea2aad3	0.31770954
85	0x3cbffeee	0.02343699
86	0x3d7d4824	0.061836377
87	0xbe070e11	-0.1318896
88	0xbdb032bd	-0.086034276
89	0x3e6fc865	0.23416288
90	0x3c59e04a	0.013298104
91	0x3e11a7e5	0.14224203
92	0xbe5f06df	-0.21779965
93	0xbe9670ea	-0.29383022
94	0x3db819ce	0.08989297
95	0xbd8b47e0	-0.068008184
96	0x3dc5a2b9	0.096501775
97	0xbd541399	-0.051776502
98	0xbe5ce2d0	-0.21570897
99	0xbe53f330	-0.20698237
100	0xbe0d0251	-0.13770415
101	0xbde4f45f	-0.111794226
102	0x3cc702b1	0.024293276
103	0x3e44e529	0.19228043
104	0x3d2119ed	0.039331365
105	0x3d176793	0.03696401
106	0x3da84dd1	0.08217967
107	0x3d0678b8	0.03282997
108	0x3e52a934	0.20572358
109	0x3d0d0c55	0.03443559
110	0xbd6b00c2	-0.05737377
111	0xbe0c8ac7	-0.13724814
112	0xbc956373	-0.018235898
113	0x3dfb3ce8	0.12267476
114	0x3d441f83	0.047881614
115	0xbaa55c94	-0.0012616091
116	0x3c2463a2	0.01003352
117	0x3d841cd5	0.06450812
118	0x3d96f607	0.07371145
119	0xbd1efda0	-0.038816094
120	0xbe24f103	-0.16107564
121	0xbd7acfd4	-0.061233357
122	0xbd7ab5f8	-0.061208695
123	0x3e47b20d	0.19501515
124	0x3c4ddf76	0.012565484
125	0xbcf1cbee	-0.029516187
126	0x3c212c4d	0.009837222
127	0x3c43ccac	0.011950653
128	0x3c08f9bd	0.0083603235
129	0x3d89bf47	0.067259364
130	0x3d5e1275	0.05421682
131	0xbcb246b0	-0.021762222
132	0x3d121ed3	0.035673928
133	0x39aa73bd	0.00032511158
134	0x3d9e722a	0.07736619
135	0x3dc0d870	0.09416282
136	0x3d579007	0.05262759
137	0x3d64d9e2	0.05587185
138	0x3c76a10f	0.015053048
139	0x3d273f8f	0.0408321
140	0x3e20d579	0.15706433
141	0x3de31523	0.11088016
142	0xbc12f054	-0.0089684315
143	0x3d5dcdde	0.05415141
144	0x3dca3824	0.09873989
145	0x3d6784f4	0.05652328
146	0x3ca0ce05	0.019629488
147	0xbcd33980	-0.025784254
148	0x3d36756d	0.04454558
149	0x3e1f4973	0.15555362
150	0xbd4d1bd3	-0.050075363
151	0xbdc5fe2b	-0.09667619
152	0xbe265f65	-0.16247328
153	0xbe0e12d2	-0.13874367
154	0xbe698f52	-0.22808579
155	0x3df047bc	0.11732432
156	0x3e0a7c7a	0.13524047
157	0x3e1f7ea6	0.15575656
158	0xbe25fb8f	-0.16209243
159	0xbdf312b5	-0.118688025
160	0x3df4592e	0.11931072
161	0xbd9ea4fc	-0.07746312
162	0xbdb49436	-0.088173315
163	0xbd3e7804	-0.046501175
164	0xbe5f32b2	-0.21796682
165	0x3dc0a194	0.094058186
166	0x3dbe3dc9	0.09289128
167	0x3e46c72d	0.19411917
168	0xbc507697	-0.0127235865
169	0xbe823a80	-0.25435257
170	0xbce2745c	-0.027643375
171	0x3c0f2feb	0.008739452
172	0x3d340a59	0.04395518
173	0x3cc25146	0.023720395
174	0xbc679a06	-0.014135843
175	0xbe155652	-0.1458371
176	0xbded8401	-0.11597443
177	0x3d9a19d7	0.0752446
178	0x3c1c4e6e	0.0095401835
179	0xbd846360	-0.06464267
180	0x3d1d0dc3	0.038343202
181	0x3e0c76e6	0.13717231
182	0x3dd232fd	0.102636315
183	0xbc7d1057	-0.01544579
184	0x3d1ceeb7	0.038313594
185	0xbd29fa40	-0.041498423
186	0xbd659823	-0.056053292
187	0x3d274b1d	0.040843118
188	0x3d2e8dee	0.042615823
189	0x3db403c6	0.08789782
190	0xbdfe36cd	-0.12412796
191	0xbda450fa	-0.080232576
192	0x3ca53938	0.020168886
193	0x3daa0be1	0.08303047
194	0x3d93530a	0.07193573
195	0xbe3a2c16	-0.1818088
196	0x3db9e533	0.090769194
197	0x3d630f71	0.055434648
198	0x3d7f6fad	0.06236236
199	0xbd8339ae	-0.06407486
200	0x398526b7	0.00025396582
201	0xbe0402d5	-0.12891705
202	0x3d28b715	0.041190226
203	0x3d90381e	0.070419535
204	0x3db841cc	0.08996925
205	0xbbff73c5	-0.007795783
206	0xbbe7ac25	-0.007070082
207	0x3d6785f7	0.056524243
208	0x3daf90e0	0.085725546
209	0x3c8e17f5	0.017345408
210	0x3b87cf8c	0.0041446146
211	0x3d992d63	0.0747936
212	0x3d8176d3	0.06321492
213	0x3da7747e	0.08176516
214	0x3d54736c	0.051867887
215	0x3cfd66c0	0.030932784
216	0x3de070f2	0.109590426
217	0xbd011a4d	-0.031519223
218	0x3c6c477a	0.014421338
219	0x3d92357c	0.071391076
220	0x3dc21898	0.09477347
221	0x3d71bf9d	0.059020627
222	0xbda4d1f6	-0.08047859
223	0xbd8d706d	-0.06906209
224	0xbdde832c	-0.10864863
225	0xbc1365bb	-0.008996422
226	0xbd8b228c	-0.06793699
227	0xbf04a8bd	-0.51819974
228	0xbecc8d76	-0.39951676
229	0xbd233485	-0.03984501
230	0x3d191bc6	0.037380002
231	0x3d25534e	0.04036265
232	0xbed20c4c	-0.41025007
233	0xbee884ec	-0.4541391
234	0x3d2f7dee	0.042844705
235	0xbcd7840c	-0.026308082
236	0xbc9022e4	-0.017594762
237	0xbefcef35	-0.4940125
238	0xbf09a5ee	-0.53768814
239	0xbdc09420	-0.094032526
240	0x3d2330bb	0.039841395
241	0x3969cf5b	0.00022297858
242	0xbf0a703c	-0.54077506
243	0xbf2c26c6	-0.67246664
244	0xbd683c28	-0.056697994
245	0x3d6ab7de	0.057304256
246	0x3cc51a14	0.024060287
247	0xbeaae1fb	-0.33375534
248	0xbf2f8177	-0.6855692
249	0xbe62339d	-0.22090001
250	0x3d04fa1e	0.032465093
251	0x3d3e5fac	0.04647796
252	0x3beb7354	0.007185379
253	0xbcfae83a	-0.030628312
254	0xbcf5cb08	-0.03000404
255	0x3db6112e	0.088899955

layer.5.bias f4 [64]
0	0x3e48e778	0.19619548
1	0x3dabe65c	0.08393547
2	0xbd4971b3	-0.049180698
3	0x3e2af9f3	0.1669691
4	0xbcd5b545	-0.026087413
5	0x3db0af80	0.08627224
6	0xbdcde67f	-0.10053729
7	0x3cbd487b	0.02310585
8	0xbdf3810b	-0.11889847
9	0xbdd9b2d8	-0.10629815
10	0xbd7e48e2	-0.062081225
11	0x3d68c542	0.056828745
12	0xbc96ee51	-0.018424185
13	0x3e16dff2	0.14733866
14	0x3e09043e	0.13380525
15	0xbd0ade6b	-0.03390352
16	0xbce5c8fc	-0.028049938
17	0x3e098266	0.1342865
18	0x3e312c6e	0.17302105
19	0xbcd91d24	-0.026503153
20	0xbcba68d9	-0.022755073
21	0xbd2d0855	-0.042244274
22	0x3d1f24ed	0.038853575
23	0xbd9a2d84	-0.07528213
24	0xbb2864d1	-0.0025694857
25	0xbbdd0926	-0.0067454753
26	0xbd1dca08	-0.03852275
27	0xbe0072d6	-0.12543806
28	0x3e28a28e	0.1646826
29	0xbd5ffff9	-0.054687474
30	0xbd3c447d	-0.045963753
31	0xbd7ff39c	-0.062488183
32	0x3e3d0d0c	0.18462008
33	0xbd9316f7	-0.071821146
34	0xbc8df831	-0.017330261
35	0xbd44ad26	-0.04801669
36	0xbc2fd975	-0.010732998
37	0xbdd5984e	-0.104294404
38	0xbd799e5a	-0.06094203
39	0x3d127f0c	0.035765693
40	0xbdadf225	-0.08493451
41	0xbc842ee1	-0.016135635
42	0x3e4e6cb3	0.20158653
43	0x3dbbe46d	0.09174428
44	0x3d2540da	0.04034505
45	0x3d98655f	0.0744121
46	0xbda92a0d	-0.08259974
47	0xbd9c251d	-0.07624266
48	0xbd92ae27	-0.07162123
49	0xbdfff13c	-0.12497184
50	0xbcab189a	-0.020885754
51	0xbd92f90c	-0.07176408
52	0x3d9527fb	0.07283016
53	0x3cb800da	0.022461344
54	0xbd8ed735	-0.06974641
55	0x3ce5051e	0.027956542
56	0x3c897150	0.016777664
57	0xbd325d08	-0.043545753
58	0xbd3be10c	-0.04586892
59	0xbd11778f	-0.03551441
60	0x3e7ba512	0.24574688
61	0x3d49d335	0.04927369
62	0xbcf9dc8c	-0.030500673
63	0xbdb590ae	-0.08865486

fc_layer.0.weight f4 [100, 576]
0	0x3c8dcfa3	0.017310923
1	0xbceed13c	-0.029152505
2	0xbccb0c27	-0.024786068
3	0xbd16b58b	-0.036794227
4	0xbccdc1fb	-0.025116911
5	0xbc285a2b	-0.010275404
6	0x3d0bc1cb	0.034120362
7	0xbd0beaba	-0.0341594
8	0x3be3d941	0.006953389
9	0xbd009bd0	-0.031398594
10	0xbcabef5e	-0.020988163
11	0x3cc808f6	0.024418335
12	0xbd19a776	-0.03751322
13	0xbd07525e	-0.033037536
14	0xbc86f476	-0.01647399
15	0xbd098583	-0.033574592
16	0xbcc9d0f0	-0.024635762
17	0x3ca60f5e	0.020271
18	0x3c16f216	0.009212991
19	0x3cf1c520	0.029512942
20	0x3d0a2c8a	0.033733882
21	0xbc90cc56	-0.01767556
22	0x3cb3d7e8	0.021953538
23	0xbcf942e6	-0.030427407
24	0xbc3d7be0	-0.011565179
25	0x3cee2f0b	0.029075166
26	0x3c5624f0	0.01307033
27	0xbc94ef1d	-0.018180424
28	0xbd0764ea	-0.033055224
29	0x3bb02140	0.0053750575
30	0x3c8f3d93	0.017485416
31	0x3d19104a	0.03736905
32	0x3b908620	0.00441052
33	0x3d2672de	0.04063689
34	0xbd1a4d82	-0.037671573
35	0x3d0d2ae6	0.03446474
36	0x3cf09438	0.029367551
37	0xbc11009b	-0.008850242
38	0x3ccfeacb	0.025380513
39	0x3cf076f0	0.029353589
40	0xbd17f0ec	-0.037094995
41	0x3cefdea8	0.029280975
42	0xbd1e6784	-0.03867294
43	0x3b176dc0	0.0023106188
44	0x3c523c00	0.012831688
45	0x3c459e20	0.012061626
46	0x3b8f399f	0.0043708826
47	0xbce81b83	-0.028333431
48	0x3ce022a0	0.02736026
49	0x3ce753f2	0.02823827
50	0xbce50506	-0.027956497
51	0xbd1f1f9a	-0.038848497
52	0xbbf25201	-0.0073950295
53	0xbc2046d1	-0.009782509
54	0xbcef19d8	-0.029187128
55	0x3bfd7dcb	0.007735943
56	0xbd0cc7bf	-0.03437018
57	0xbd40d594	-0.047078684
58	0x3c73b1df	0.014873951
59	0xbcbc8936	-0.023014646
60	0x3c192db2	0.0093492735
61	0x3caa5d2f	0.020796387
62	0xbd42d8a7	-0.047569897
63	0xbd01be08	-0.03167537
64	0x3ce3a32b	0.027787765
65	0xbd0770fa	-0.033066727
66	0x3bbbe9e4	0.005734669
67	0xbce677f3	-0.028133368
68	0xbc5a0c81	-0.013308645
69	0xbd33654b	-0.043797772
70	0xbcbfbc37	-0.023405178
71	0xbb994108	-0.004676942
72	0x3c80931c	0.015695147
73	0xbc9197d2	-0.017772589
74	0xbd27727b	-0.04088066
75	0xbd255bfa	-0.04037092
76	0x3d08897b	0.033334237
77	0xbd191b82	-0.03737975
78	0xbd3a2a28	-0.04545036
79	0x3a5754c6	0.00082142313
80	0x3c99a1e3	0.018753951
81	0xbd0e4fa5	-0.034743924
82	0x3c029a69	0.007971385
83	0xbc707613	-0.014676589
84	0xbca75dea	-0.020430524
85	0xbd3da113	-0.04629619
86	0xbccd1f50	-0.025039345
87	0xbc2082f1	-0.009796844
88	0xbd3bc2c7	-0.04584005
89	0x3c9bb08c	0.019005083
90	0x3c54dd0b	0.012992154
91	0x3d01650b	0.031590503
92	0xbc8c39ab	-0.017117342
93	0x3a4fa556	0.00079210603
94	0x3d24bef2	0.040221162
95	0x3b4a81eb	0.003090019
96	0x3d0beb18	0.03415975
97	0xbceaeec3	-0.028678304
98	0x3d0ae1cf	0.033906754
99	0x3cba46fa	0.022738922
100	0xbc5c2cf7	-0.013438455
101	0xbcbfe84e	-0.023426201
102	0x3c2b68e2	0.010462018
103	0xbb80b770	-0.0039281175
104	0x3c13d065	0.009021853
105	0x3c7b9d75	0.015357365
106	0xbd1dbbeb	-0.03850929
107	0xbd0a6c85	-0.0337949
108	0xbd3a1b51	-0.045436207
109	0xbc3b223c	-0.011421736
110	0xbcf6845e	-0.030092414
111	0x3ba395c9	0.004992221
112	0x3b4cc3fb	0.0031244743
113	0xbd0fe885	-0.035133857
114	0x3aa23860	0.001237642
115	0xbd0dc2a2	-0.034609444
116	0x3be9d2c0	0.007135719
117	0xbd145404	-0.036212936
118	0xbb3a8c2b	-0.0028464894
119	0xbc9a2eab	-0.018821081
120	0xbd16ebfb	-0.036846142
121	0xbcce8ced	-0.025213683
122	0xbd39cc3f	-0.0453608
123	0x3cb5376c	0.022121154
124	0x3b627b0d	0.0034558207
125	0x3c6fc9d2	0.01463552
126	0x3be3f3db	0.00695656
127	0xbd22b45c	-0.039722785
128	0xbcb12b7a	-0.021627177
129	0xbcfbd68b	-0.03074195
130	0x3c94c711	0.018161329
131	0xbcf33e47	-0.029692782
132	0xbc0def30	-0.008662984
133	0x3c8a20d8	0.016861364
134	0xbc9c7134	-0.019096948
135	0xbbf8a9b6	-0.0075885905
136	0x3cc53824	0.024074621
137	0xbc1918cc	-0.009344291
138	0xbca25da5	-0.019820044
139	0x3c914df6	0.01773737
140	0xbd323000	-0.043502808
141	0xbd1ddd50	-0.03854114
142	0x3b91aa9d	0.0044453875
143	0x3c340be4	0.010989163
144	0x3bcb1736	0.0061978353
145	0x3cbcd6bb	0.02305161
146	0x3d18e716	0.037329756
147	0xbc5bb16b	-0.013408999
148	0x3c985016	0.018592875
149	0x39fd4600	0.00048308074
150	0x3cf2ad6b	0.029623708
151	0x394ced56	0.0001954337
152	0xbbb1650b	-0.0054136566
153	0xbd1c8638	-0.03821394
154	0x3c05e32f	0.008171841
155	0xbaa88e90	-0.001285987
156	0xbce5ef6f	-0.028068272
157	0xbd2200f4	-0.03955169
158	0xbcebafe8	-0.028770402
159	0x3cde2efa	0.02712201
160	0xbbc4637e	-0.0059933057
161	0x3b2fe114	0.0026837038
162	0xbd1042b5	-0.035219867
163	0x3c50e6db	0.012750353
164	0xbcb1929c	-0.021676354
165	0xbd13f86e	-0.036125593
166	0xbcb60eae	-0.022223797
167	0xbc124bfc	-0.008929249
168	0x3c96b797	0.01839809
169	0x3cfc101f	0.030769406
170	0xbc512a2e	-0.012766404
171	0xbcacefdf	-0.021110473
172	0xbc8f9c8e	-0.017530706
173	0xbb3b69fd	-0.002859711
174	0x3d0b3383	0.033984672
175	0x3cd32694	0.025775231
176	0x3cbc1033	0.022956943
177	0xbd33369c	-0.04375325
178	0x3d08cedb	0.033400398
179	0xbcd65043	-0.026161319
180	0xbc93a313	-0.018022096
181	0xbcde4498	-0.027132317
182	0xbd1cbae6	-0.038264178
183	0xbc5bb902	-0.0134108085
184	0xbc5d77aa	-0.0135173
185	0x3d057c67	0.032589342
186	0xbd3b1eaf	-0.04568356
187	0x3b6bd969	0.003598774
188	0xbcf9c7d5	-0.030490795
189	0x3c1410a0	0.009037167
190	0xbb779580	-0.0037778318
191	0xbb489696	-0.0030607334
192	0x3cfc01f8	0.030762658
193	0xbc4e76bb	-0.01260155
194	0x3c6c046b	0.01440535
195	0xbc7a1746	-0.015264338
196	0x38dba556	0.0001047353
197	0x3cf34716	0.029696982
198	0xbca98ea7	-0.020697905
199	0x3cb7623c	0.022385709
200	0xbd079ce9	-0.033108626
201	0xbce8d1eb	-0.02842041
202	0x3d053586	0.032521747
203	0x3cf4bc51	0.029874953
204	0x3be5bd44	0.0070110876
205	0xbbbad483	-0.005701603
206	0x3c536ce9	0.012904384
207	0xbcbd42a2	-0.023103062
208	0x3c765e2c	0.015037101
209	0xbd057d0a	-0.03258995
210	0x3c934288	0.01797606
211	0xbb6661d3	-0.0035153523
212	0xbba5112b	-0.005037447
213	0xbce344ca	-0.027742762
214	0xbc8f6644	-0.017504819
215	0xbcb934c0	-0.022608161
216	0xbc28c659	-0.010301196
217	0x3be1891e	0.0068828007
218	0x3d07145b	0.032978397
219	0x3c8d6569	0.01726027
220	0x3ac66640	0.0015136674
221	0xbc0aada2	-0.008464249
222	0xbb67b63e	-0.0035356428
223	0x3c9831ac	0.018578373
224	0x3c578382	0.0131539125
225	0xbcf2e306	-0.029649269
226	0x3cccbd4e	0.024992611
227	0xbd153b95	-0.036433775
228	0x3cd50673	0.026004052
229	0xbd0908df	-0.033455726
230	0xbca98737	-0.020694358
231	0x3cd03ebf	0.025420545
232	0x3c72b55c	0.014813747
233	0x3b4a6530	0.0030883066
234	0xbcf73da0	-0.030180752
235	0x3ca51b1e	0.020154532
236	0xbcb0c2f0	-0.021577328
237	0xbca30500	-0.019899845
238	0xbc39bfeb	-0.011337261
239	0xbd1fccd3	-0.039013695
240	0xbd21882e	-0.03943651
241	0xbbe1d280	-0.0068915486
242	0xbd25284f	-0.040321644
243	0xbb7f2569	-0.003893221
244	0xbc159eb6	-0.009132078
245	0x3be6dd34	0.0070454124
246	0xbcd62b95	-0.026143828
247	0x3c7585c3	0.014985505
248	0xbd30de8c	-0.043180987
249	0xbcef2677	-0.029193146
250	0xbb42b785	-0.0029711437
251	0x3cf62a3e	0.03004944
252	0xbcc97264	-0.024590679
253	0x3bcbdbf7	0.00622129
254	0x3c9268e6	0.017872285
255	0x3ba33fb5	0.0049819597

fc_layer.0.bias f4 [100]
0	0xbc42978a	-0.01187695
1	0x3db6968b	0.089154325
2	0xbcd3b581	-0.025843384
3	0xbd8faf36	-0.07015841
4	0xbd316cf7	-0.043316808
5	0x3e3296e0	0.17440367
6	0xbceadf5f	-0.028670965
7	0x3e4a8e62	0.19780877
8	0x3c08c2a4	0.008347187
9	0xbab01565	-0.001343411
10	0x3d0a963d	0.033834685
11	0xbe06b6aa	-0.13155618
12	0x3d12d592	0.035848208
13	0xbd580f10	-0.05274874
14	0x3dd30f91	0.103057034
15	0x3a881260	0.0010381453
16	0xbc275642	-0.010213437
17	0x3c3861a9	0.011253753
18	0x3e26e023	0.16296439
19	0xbd8dbada	-0.06920405
20	0xbde0b0e1	-0.10971237
21	0x3d9ceea8	0.076627076
22	0x3cb7712e	0.022392835
23	0xbc06a09c	-0.008217003
24	0xbd55fd0f	-0.05224329
25	0xbd8c544b	-0.06852015
26	0x3de6f2da	0.11276789
27	0xbd4a2a33	-0.04935665
28	0xbc89f391	-0.016839774
29	0xbd3d7504	-0.046254173
30	0x3d97edfa	0.07418437
31	0x3df118e3	0.11772325
32	0xbc9b5ad5	-0.01896421
33	0xbbb97063	-0.0056591495
34	0xbd89c73f	-0.06727456
35	0xbde3921c	-0.111118525
36	0xbd2a12f7	-0.041521993
37	0xbd0bc2d0	-0.034121335
38	0x3de379ae	0.11107193
39	0x3de1dfe3	0.11029031
40	0x3e20a301	0.15687181
41	0xbd8c46d2	-0.068494454
42	0x3cd1b4a6	0.025598835
43	0xbd552639	-0.052038405
44	0x3d401fdd	0.046905387
45	0xbd3d72e8	-0.04625216
46	0xbd4fce71	-0.050733987
47	0xbd3df2b4	-0.046374038
48	0x3e2ed5ca	0.17073742
49	0xbd9a2914	-0.07527366
50	0xbccfcb5f	-0.02536553
51	0xbdbb61e4	-0.091495305
52	0xbca82cb4	-0.020529129
53	0xbd36a802	-0.04459382
54	0x3da84bf2	0.082176104
55	0xb9b5b8e6	-0.0003466077
56	0x3d91277f	0.070876114
57	0x3e364f2c	0.17803639
58	0xbdcf21a4	-0.10113838
59	0xbca21cf7	-0.019789202
60	0xbd69e0bb	-0.057099085
61	0xbd609665	-0.054830927
62	0x3de4c453	0.111702584
63	0x3e08a339	0.13343515
64	0x3df3a9b4	0.11897603
65	0xbcf0aabf	-0.029378293
66	0x3dd452d8	0.10367364
67	0x3d1c25c5	0.038121957
68	0xbd4e314c	-0.050339982
69	0x3e42d28f	0.19025634
70	0xbd05ca1e	-0.032663457
71	0x3dcf8e41	0.10134555
72	0xbcba3b9d	-0.022733504
73	0x3e9301b8	0.2871225
74	0xbc1bd455	-0.009511073
75	0xbd073bd7	-0.033016052
76	0x3da3dcf7	0.0800113
77	0xbd1d5406	-0.03841021
78	0xbd1f8513	-0.03894527
79	0x3e03caed	0.12870379
80	0xbd2673ef	-0.040637907
81	0xbcac1b02	-0.021008972
82	0xbd798dd2	-0.060926266
83	0xbd0115c0	-0.031514883
84	0xbbce481e	-0.006295218
85	0xbd940cbb	-0.07228991
86	0xbc8e67c0	-0.017383456
87	0xbcc1eebb	-0.023673406
88	0xbd6d4d4e	-0.05793505
89	0xbd115f41	-0.03549123
90	0x3d351507	0.044209506
91	0x3c44574b	0.011983703
92	0x3e3c6d08	0.18400967
93	0xbd43e41d	-0.047824968
94	0xbcb768cf	-0.022388844
95	0x3e2d63ae	0.16932556
96	0x3c561377	0.013066164
97	0xbd24cb59	-0.04023299
98	0x3d8d8b10	0.0691129
99	0x3d2168c0	0.039406538

fc_layer.2.weight f4 [10, 100]
0	0xbdb6f71c	-0.08933851
1	0x3daeedfb	0.08541485
2	0x3defeeba	0.11715455
3	0xbe5ea59e	-0.21742865
4	0x3db00f66	0.08596687
5	0x3d969061	0.07351757
6	0xbe736937	-0.23770605
7	0xbd89715b	-0.06711074
8	0x3dd77ea4	0.10522202
9	0xbe2df1ba	-0.16986743
10	0xbe816123	-0.25269422
11	0xbdc56357	-0.09638088
12	0xbea124f0	-0.31473494
13	0xbdc30ad2	-0.09523548
14	0x3cf8e2ac	0.030381523
15	0x3e6d7c66	0.23191985
16	0xbee6ad76	-0.45054215
17	0x3d534147	0.051575925
18	0x3e19dc1e	0.15025374
19	0x3c358b39	0.011080557
20	0x3e187cfc	0.14891428
21	0x3d157b33	0.036494445
22	0x3de801a2	0.113284364
23	0xbd0f56f5	-0.034995038
24	0x3d6c6d64	0.05772151
25	0xbe981b99	-0.29708555
26	0x3dc404ce	0.09571229
27	0xbdbd8d99	-0.09255523
28	0xbde281c6	-0.110599086
29	0x3e01f688	0.126917
30	0xbdd8a4b0	-0.10578287
31	0x3d82aba8	0.06380397
32	0x3d1fb514	0.03899105
33	0xbdc4b5f3	-0.096050166
34	0x3cd211c1	0.025643231
35	0xbe1dbb01	-0.15403368
36	0x3c83cbf5	0.016088465
37	0xbe9d5304	-0.30727398
38	0x3c4b36da	0.012403214
39	0x3d8f4543	0.069956325
40	0xbce43176	-0.027855616
41	0x3cdd81ab	0.02703937
42	0xbde82163	-0.11334493
43	0xbe8d134d	-0.27553788
44	0xbe18574b	-0.1487705
45	0x39c44647	0.00037436394
46	0x3d748fff	0.059707638
47	0xbd33014c	-0.04370241
48	0xbbe48206	-0.006973508
49	0xbd39f6a6	-0.045401238
50	0xbd5a7bed	-0.05334084
51	0x3d6735b0	0.056447685
52	0x3cd101df	0.025513588
53	0x3d1fa787	0.038978126
54	0xbed3055d	-0.4121503
55	0xbb9b8b23	-0.004746811
56	0xbdd31064	-0.10305861
57	0xbd926df1	-0.07149876
58	0x3dc2bb1a	0.09508343
59	0xbda8bff7	-0.082397394
60	0x3c89bb59	0.016812967
61	0xbda58422	-0.08081843
62	0xbe6ff992	-0.23435047
63	0x3db01b35	0.08598939
64	0xbe60369d	-0.21895833
65	0x3e4ead06	0.2018319
66	0x3d59d202	0.053178795
67	0x3e0fed33	0.14055328
68	0xbcf6bec7	-0.030120267
69	0x3e1b4d28	0.15166152
70	0x3de9c291	0.11414064
71	0xbca37a46	-0.019955765
72	0xbde69e14	-0.1126062
73	0x3cdceae5	0.026967475
74	0x3d430fbe	0.047622435
75	0x3d25a9df	0.040445205
76	0xbc20a832	-0.009805726
77	0x3d4845d1	0.048894707
78	0xbd288781	-0.04114485
79	0x3d84e29d	0.064885356
80	0xbcdad3c3	-0.026712304
81	0x3c8f9b45	0.017530093
82	0x3d97b775	0.074080385
83	0xbbaee392	-0.005337187
84	0xbe36f7dd	-0.1786799
85	0xbcf08281	-0.029359104
86	0xbcd1b978	-0.025601134
87	0xbaa304aa	-0.0012437303
88	0xbdc6e115	-0.097109
89	0x3daf918c	0.08572683
90	0x3e05b67c	0.13057894
91	0xbe014cad	-0.12626906
92	0x3db21b03	0.08696558
93	0x3db2ed6a	0.087366894
94	0x3d36de53	0.04464562
95	0xbe5f6091	-0.21814181
96	0x3e3f4e65	0.18682249
97	0xbd902552	-0.07038368
98	0x3d9244de	0.071420416
99	0x3dababe0	0.08382392
100	0xbd886dd4	-0.06661573
101	0x3d9a9d2e	0.07549511
102	0x3ecd1bf1	0.4006038
103	0x3db9b873	0.09068384
104	0xbdd2cfe7	-0.102935605
105	0xbe594ea4	-0.21221405
106	0x3db6802d	0.08911166
107	0x3c54ea5b	0.012995328
108	0x3dc592dc	0.09647152
109	0xbe1a41ae	-0.15064117
110	0x3ddc7fab	0.10766538
111	0x3e4c6313	0.19959669
112	0x3b6aa5c4	0.003580437
113	0x3d808e8f	0.06277191
114	0x3d1dccc1	0.038525347
115	0xbe94a6de	-0.2903356
116	0xbe7c576a	-0.24642721
117	0xbeb54c85	-0.35409942
118	0xbd1e0d31	-0.0385868
119	0x3e2c7084	0.16839796
120	0xbea1eae5	-0.31624523
121	0xbe90aa30	-0.28254843
122	0x3e511ee3	0.20421939
123	0x3d61f613	0.055166315
124	0xbd96ba2e	-0.0735973
125	0x3d89eab6	0.06734221
126	0x3dfd34b3	0.12363567
127	0xbc60e747	-0.013727016
128	0xbd7bb287	-0.061449554
129	0x3db48474	0.08814326
130	0xbe254e22	-0.16143087
131	0xbeab9d96	-0.33518666
132	0xbbfb3a31	-0.007666849
133	0x3d1d7c32	0.03844852
134	0xbd9babc3	-0.0760112
135	0x3d8128e7	0.0630663
136	0x3da0d222	0.0785258
137	0xbe4b4bb6	-0.198531
138	0xbe9a1e2f	-0.30101153
139	0x3df5ef2c	0.12008509
140	0x3e0d922b	0.1382529
141	0xbd823050	-0.06356871
142	0xbd8a6e23	-0.06759288
143	0xbdaab1ff	-0.08334731
144	0xbf6f166d	-0.93393594
145	0xbd6bdec9	-0.05758551
146	0x3bc172fa	0.005903599
147	0x3e0582f1	0.13038231
148	0xbebafd94	-0.3652159
149	0x3df1c339	0.11804814
150	0xbd09b4c5	-0.03361966
151	0xbec9c42a	-0.39407474
152	0xbc64ec5b	-0.013972367
153	0xbd18e1f9	-0.03732488
154	0xbe91ef4e	-0.28502887
155	0x3c521516	0.01282241
156	0xbe8042bd	-0.25050917
157	0xbeae5ef1	-0.3405681
158	0xbe9d3c6e	-0.30710167
159	0x3d6e7e72	0.058226056
160	0x3dadba5b	0.0848281
161	0xbd14bb17	-0.036311235
162	0xbe5bf4aa	-0.2148005
163	0xbe414bfc	-0.18876642
164	0xbe2060c0	-0.15661907
165	0xbdb21dc6	-0.08697085
166	0x3c94cd2a	0.018164236
167	0xbdf20f87	-0.11819368
168	0xbdac8a10	-0.08424771
169	0x3e03508c	0.12823695
170	0x3be246d3	0.0069054156
171	0x3e030a1b	0.12796824
172	0x3d9feabe	0.078084454
173	0xbea8b138	-0.32947707
174	0xbeb84129	-0.35987213
175	0xbd4c8f72	-0.049941488
176	0xbdda99bb	-0.10673853
177	0x3c759ada	0.014990533
178	0xbb389db1	-0.0028170163
179	0xbee03c88	-0.43796182
180	0xbbaae1bd	-0.0052148984
181	0x38296408	4.03859e-05
182	0xbd34f904	-0.044182792
183	0x3d3ca969	0.04606
184	0xbe439b10	-0.1910212
185	0xbedc8569	-0.43070534
186	0x3ca067ea	0.0195808
187	0xbc68cffa	-0.014209742
188	0xbeeb0133	-0.45899352
189	0x3d340c69	0.043957148
190	0xbcc4f7d7	-0.02404396
191	0x3e215614	0.15755492
192	0x3dec5518	0.11539668
193	0x3d957c19	0.072990604
194	0xbd7e8566	-0.062138937
195	0x3e3d7e30	0.18505168
196	0x3e379b15	0.17930253
197	0x3d88b235	0.06674615
198	0x3d5b282a	0.0535051
199	0xbd654547	-0.05597427
200	0xbd347419	-0.04405603
201	0x3d1d6932	0.0384304
202	0x3cff525a	0.031167198
203	0xbb4bae23	-0.0031079135
204	0xbd31a865	-0.043373484
205	0xbafe6d22	-0.0019411186
206	0x3da9327e	0.08261584
207	0xbc8d13ef	-0.01722142
208	0xbe343f32	-0.17602232
209	0xbe6ce970	-0.23135924
210	0x3e7a1294	0.2442115
211	0xbaac795a	-0.0013158724
212	0xbdc3b503	-0.095560096
213	0x3c888803	0.016666418
214	0xbe1ae7e6	-0.15127525
215	0xbdb0dc3c	-0.086357564
216	0xbe8b6c3a	-0.27231008
217	0x3da3be99	0.07995338
218	0x3e24d8b9	0.16098298
219	0xbe6cc00c	-0.23120135
220	0xbd6827b5	-0.056678493
221	0xbea11713	-0.31462917
222	0xbeaa095e	-0.33210272
223	0x3d252da1	0.04032672
224	0x3d99defc	0.07513234
225	0x3e351ee6	0.17687568
226	0x3d003a83	0.0313058
227	0x3d8c1694	0.06840244
228	0xbd9c3c03	-0.07628634
229	0x3dec5c5d	0.115410544
230	0x3c407a1e	0.011747865
231	0xbdef3a44	-0.11681035
232	0xbc1d8402	-0.009613993
233	0xbda859bc	-0.082202405
234	0xbd609f9b	-0.05483971
235	0xbe1e88ee	-0.15481922
236	0xbcb0c6d3	-0.021579182
237	0x3d256cf6	0.040387116
238	0x3d867bf1	0.06566609
239	0x3da1f899	0.07908744
240	0x3d645c19	0.055751894
241	0xbd9fd427	-0.07804137
242	0xbde946c8	-0.113904536
243	0x3da927dd	0.082595564
244	0xbea9a27c	-0.33131778
245	0xbd40e0fe	-0.04708957
246	0x3bf03615	0.007330666
247	0xbda1a178	-0.07892126
248	0x3db4acab	0.08821996
249	0xbe64a728	-0.2232939
250	0x3d437a64	0.047724143
251	0x3dc2f60e	0.095195875
252	0xbddfdc30	-0.10930669
253	0xbda19176	-0.078890726
254	0xbcaf45f2	-0.021395657
255	0xbd9993f7	-0.07498925

fc_layer.2.bias f4 [10]
0	0x3aa0d8f2	0.0012271686
1	0xbd88a081	-0.06671239
2	0xbd24871e	-0.04016792
3	0x3df16876	0.117875025
4	0xbe9b0b13	-0.30281886
5	0xbcdb14ca	-0.026743311
6	0x3e586586	0.21132478
7	0x3d9d53f9	0.07682032
8	0x3dfb8e30	0.122829795
9	0x3b4ca079	0.003122358
