model_weights.pth (torch, 943645 bytes, 6 tensors)

fc1.weight f4 [256, 784]
00000000: 4528 d03d 45bf 1c3e fcfa 0e3f 828b 1c3d
00000010: ff2b 0abe acd9 9cbd 847f cb3e 885e f73e
00000020: aced 4e3e 3484 383d 1e85 0f3e 046c 463e
00000030: 2792 89be fde1 3ebe c471 34be 84df c1bd
00000040: 4021 bf3e cd1b 243e 7750 553e 2fc0 993e
00000050: e3d1 0a3f d44b ce3e d65e e93d 1bba 82bd
00000060: a073 c7be ac50 bebd 3953 6d3e bba5 a63e
00000070: b55b 44bd 0d3e ed3c 80d3 28be 25e0 8cbd
00000080: c3d8 afbe 770d 43bd 3384 57be 295e 5dbe
00000090: 0a7e 0cbe c26b ca3d 59df 953d 12ec 183d
000000a0: 060c 6fbc 5312 063e 87f3 313e fd25 da3c
000000b0: 6f90 d93d 4457 003e 866d e93d 9d73 1c3e
000000c0: e8e0 83bc 1074 863d 0f42 b9bd 6e31 92be
000000d0: a298 1fbf 7e2a acbe 8132 163e 8438 ad3e
000000e0: f129 023f 5880 153e 1c35 eabe 1796 b1bd
000000f0: 077f d8bd ac5b 9abe a0b6 3ebd 11a2 50bd
00000100: 8ab0 083c 062d ba3d 57ee 36bd f916 59bc
00000110: cb98 2ebd 81c9 37bd 4312 043d f0a5 42be
00000120: 93b4 a7bd d9a6 a13d 6996 b33d 5021 a93d
00000130: 3dd0 4a3e c214 713d 5f56 b7bc 0564 cfbd
00000140: 8fbd 45be c806 81be c2a2 01be e56c 913e
00000150: 8f33 be3c ef57 263d 5153 973d 014e a0be
00000160: a585 763d c30b 5a3d bd49 0f3e 840b 663d
00000170: 095e ebba c2b9 033e a838 6f3d 2f42 d03c
00000180: b42a b5bd 03ab a6bc 8e0f 8ebd 55c4 dbbd
00000190: 0ded ffbc 6fe4 813d 657b 2a3e e231 b7bb
000001a0: a5ef 0c3e 55fd 673d f322 273e 675e 973d
000001b0: c872 52be 855d e5bd 1fd8 6ebe cd52 a03c
000001c0: 46ef ee3d d4ca c3bd 5e6e abbd a001 87bc
000001d0: f6fa 193e ffbc d83d 29f5 243e c68d b73c
000001e0: fcc4 81bd d20d dd3d d3ef 51bc 9dfb 913d
000001f0: 5ee5 cabd 30fc f9bd 9b3d 7cbe 8705 95bd
00000200: 166d abbc 4185 df3b 526e a73d 5f12 c83d
00000210: 738b 383d 222c 663d 1c0e 173e 0284 ab3e
00000220: c555 4bbe 45a9 6dbe 67ba 86be 48f6 26bd
00000230: d55c 5b3e 15bb 9abe aa98 b7be 436a 843c
00000240: f0c7 a43e 6770 303e a4c8 3a3e cf6c 503c
00000250: 82dc 64bd 66f0 c53c cc5a 16bd 0ac9 07bc
00000260: 427e fc3b 2a2b acbd 9d07 14bd 9326 7abd
00000270: a4ed 94bd 3d00 5e3d 54b7 813d fc39 cebb
00000280: e2e0 09bc 91e9 423d 5ccb 413e fed1 853e
00000290: 6102 d4bb a0dc acbe 1b85 93be 0333 9c3d
000002a0: b71f 26bd 3573 6abe a524 c5bd d587 16be
000002b0: d3b1 923e aee1 2b3e 2ad1 2b3e 00a8 46bd
000002c0: 7dfb 80bd 42b5 ce3c 6277 fbbc 415d 9bbd
000002d0: ca4c efbd 2f1d 19be 500e 9cbd 07e0 5f3c
000002e0: 453a dabd ae7a e2bd 9343 70bd 74b1 6ebd
000002f0: 37c7 49bd 9a52 89bc 16dd 0d3e 7167 613e
00000300: 9eeb ad3d fae9 9ebe 637d a7be 3232 143d
00000310: 1300 ab3e 742e 2cbd 03d8 8ebe 4fad b73d
00000320: 28eb 143e 7da8 4a3e 2946 853d 3831 f3bd
00000330: b779 43be 2583 513d 4821 ffbb 1920 dbbd
00000340: dc00 01bd efc1 a6bd b272 1abd 1a45 003d
00000350: 73a1 a5bd b61a 5bbd 9b76 74bd 15db a33c
00000360: 5eed 72bd 730e f03c f5ef cc3d 16c9 913d
00000370: b0be 953c f1b9 0bbe 20d7 b6be 9dc1 32be
00000380: 0356 9c3e 8711 02be dcd7 0c3d cfda 163e
00000390: 2ec0 543e 686b 583e d94a 833d 54cb 3bbd
000003a0: da99 26be 0295 783d 682d ca3d c496 06bd
000003b0: 45b8 313d 75c6 3d3c a5b9 d1bc baaa 46bd
000003c0: b5b0 aebd 6cba 103b af5f bf3c 7a40 aebc
000003d0: ea81 03be af43 38bc 9001 323d 7cc3 a53d
000003e0: a9bb 2b3e b266 9cbe 8997 a83b da2a 09bd
000003f0: 3f42 82bc 3525 88be bf3f 6c3d 3bf7 d73d
0.10163931 0.15307339 0.5585172 0.038218983 -0.13493346 -0.07658705 0.39745724 0.4831431
0.20207852 0.045047954 0.14015624 0.19377142 -0.26869318 -0.18640895 -0.17621523 -0.0946646
0.37330055 0.1602623 0.20831476 0.30029437 0.5422651 0.40292227 0.11395042 -0.06383153
-0.38955402 -0.09292731 0.23176278 0.32548317 -0.04793902 0.028960252 -0.16486931 -0.0687869
-0.34345064 -0.047620263 -0.21046524 -0.2161795 -0.13719955 0.098838344 0.07317991 0.03733451
-0.014590269 0.13092928 0.17378055 0.026629442 0.10623252 0.12533289 0.11397843 0.15278478
-0.016098455 0.06565106 -0.09045803 -0.28553337 -0.62342274 -0.3362617 0.14667703 0.3383218
0.5084525 0.1459974 -0.45743644 -0.086712055 -0.105711035 -0.30148065 -0.046560884 -0.05093581
0.008342871 0.09090619 -0.044660892 -0.013250106 -0.042626183 -0.044869903 0.03224398 -0.19008613
-0.08188739 0.07893152 0.08768923 0.08258307 0.19805999 0.058857687 -0.022380052 -0.10126499
-0.19310592 -0.25200486 -0.12659743 0.28403392 0.023217944 0.040611204 0.07388938 -0.31309512
0.060186047 0.053233873 0.13992973 0.056163326 -0.0017957102 0.1286383 0.05840364 0.025422184
-0.088460356 -0.020345217 -0.069365606 -0.10730807 -0.031240964 0.063423984 0.16648634 -0.0055906633
0.13763292 0.05663808 0.16321926 0.07391053 -0.20551598 -0.11199478 -0.23324631 0.019570732
0.116667315 -0.09560171 -0.0837066 -0.016480267 0.1503714 0.10582923 0.16109146 0.02240647
-0.063364 0.10793652 -0.012813526 0.071280695 -0.099070296 -0.12206304 -0.24632876 -0.07276445
-0.02092604 0.006821305 0.08175339 0.09769129 0.045054864 0.056194432 0.14751476 0.3349915
-0.19856937 -0.23209102 -0.2631409 -0.040762216 0.21422131 -0.30220857 -0.3585866 0.01616395
0.3218379 0.17230378 0.18240601 0.0127212545 -0.055874355 0.024162482 -0.036707684 -0.008287678
0.007705481 -0.084066704 -0.036140073 -0.061071943 -0.07271889 0.054199446 0.06333795 -0.0062935334
-0.008415433 0.047586028 0.18925232 0.26136774 -0.00647001 -0.33762074 -0.2881249 0.07626917
-0.04055759 -0.2289551 -0.0962613 -0.14700253 0.28651294 0.16785309 0.16779009 -0.04850006
-0.062979676 0.025232915 -0.030696575 -0.07586146 -0.11684568 -0.14952539 -0.076199174 0.013664252
-0.10655645 -0.110585555 -0.058658194 -0.0582747 -0.04926225 -0.01676302 0.13853869 0.22012116
0.08492206 -0.31037885 -0.3271285 0.036180682 0.33398494 -0.04203649 -0.2789918 0.08968603
0.1454283 0.19790836 0.065075226 -0.11874622 -0.190894 0.05115046 -0.00778595 -0.106994815
-0.03149496 -0.08142459 -0.03770704 0.0313159 -0.080874346 -0.05349227 -0.059683423 0.020001927
-0.059308402 0.029303765 0.10006706 0.07118432 0.018279403 -0.1364515 -0.35711002 -0.1745667
0.30534372 -0.12701999 0.034385547 0.14731906 0.20776436 0.21134722 0.064107604 -0.045848206
-0.16269627 0.06068898 0.09871942 -0.032858625 0.043388624 0.01158296 -0.025601218 -0.04850266
-0.08529798 0.0022083772 0.023361055 -0.02127098 -0.12842527 -0.011246606 0.04345852 0.08093926
0.16770805 -0.305471 0.0051450175 -0.033488132 -0.01590073 -0.26590887 0.05767798 0.10545202

fc1.bias f4 [256]
00000000: df09 0d3e 0120 3b3e 5389 84bb b381 a03d
00000010: d315 273e 3cf8 ff3d d0c3 583e 72ec 97bd
00000020: 41d1 b5bd 8c58 353e 9ef7 dcbb dd19 263e
00000030: fd51 f63d 1bdc 8fba 9e05 a23e 3eb3 ff3e
00000040: f367 8fbc 4f4e 24bd fcad cb3e 2fb7 77be
00000050: 74b3 98be ecf3 383c 42cf 66bd a9ac fe3e
00000060: 6cf0 f83d a191 d5bd 9d34 cf3e 6595 2e3e
00000070: 92d9 983e 6bd1 133e b88d 7ebc 0685 053e
00000080: ea49 b6bd ebaf 133e abe9 323e b9ca f4bb
00000090: a251 a0bb e8d7 7b3c 8a0e fcbe ee82 263d
000000a0: 5019 2e3e 625b 163e 2f71 febd fb69 97be
000000b0: 28ba ee3e b2b6 9d3e 6196 13bd 6456 533e
000000c0: 9af1 813e f519 9a3c e9fc 103e e788 943e
000000d0: 6914 dabe 8ea7 e9ba 1778 38be c63e 0dbe
000000e0: 40da 2c3e 116b 383e 811a 0a3f 19d2 8c3d
000000f0: 9012 17be 6eb4 8dbe 3362 5b3c e839 1b3e
00000100: 8321 033e 5fdd b33e ae6b 6d3c bcaf 70bc
00000110: 762a 33bd ac38 8c3e c65d 9dbe cbde be3e
00000120: 0fad 653d e9a3 24bf 1360 333e 4ca6 7c3e
00000130: 5f47 6c3c d01d f93c 9476 54bd e20e b63e
00000140: a892 5d3c 02fe 7b3e 8427 1d3e 6638 c53e
00000150: a56d 863e 0388 403e 6963 a63d 2815 da3d
00000160: fc57 9c3e 0fc3 a13e c555 91bb 3711 c03e
00000170: 87a7 e0bc 50f2 45bb 34e6 de3e fb0b 4c3e
00000180: bc64 db3d 5318 8bbc 7d1c ca3e 836f 173d
00000190: 5046 7b3e 9565 fc3b aa11 c13d 3d5b 763e
000001a0: f8ed cf3e 827c 103e a7fd d03e e0c4 94be
000001b0: be07 623e b28d 8cbe 432f 1ebd 516f 563e
000001c0: 70d2 10bc 76cb 0bbe 539c 243c 2ddd d13e
000001d0: ed43 e83d 8a27 0e3c 50ee f5be 718b 503e
000001e0: 08a8 bd3d 9058 31be efba b63d 94b0 fd3d
000001f0: 936f cebc ec02 ad3d aa9b 2abe 0bb4 823e
00000200: 7840 983e 9c46 cfbc 00af 74be f4e9 0fbc
00000210: 750b 6e3e c1ef 26bd ba52 a23c 8268 413e
00000220: f21b 953e 19b5 cfbc d276 09bd cb5a d5bc
00000230: 395b fc3e c24e 083e 04f7 793e e882 d73d
00000240: 729b 94be 63a8 8d3e 87cb e0bc 6391 2b3e
00000250: 7d6c 2bbd 60ae edbd a24f c73d 3d69 fdba
00000260: 94ff 8d3e 8703 073e 3344 1d3c aad9 0fbe
00000270: 4bcf 95be 9d29 94be 882a e93e 1264 b9be
00000280: 6955 123e 12d3 6a3e 466b febe b21a ff3d
00000290: 6ede aa3e fc1b 33bc ae51 1ebe b5bb ef3e
000002a0: 5de6 d83e 499b a23e 9fa2 aa3e 330c ad3e
000002b0: 1a66 283e f138 cdbe 9ae3 cc3e f9ea 83be
000002c0: 0656 a8be a116 a13c 0f29 c73e b2ac 13be
000002d0: d77d a33e 8e2b 863e b2b9 09bd f46d a23d
000002e0: 9556 9bbc d04d ebbc 6e1a 5e3e 7adf 08be
000002f0: 06ef 04bd edf4 8d3e cbf8 c63e c29a c63e
00000300: eb02 0ebf 829b 56be ec5e 643e f4be dc3e
00000310: 0021 5c3e 0987 a7bd e1b3 e4bd 97a3 8f3b
00000320: 2c8e 9dbe cef3 b43e 3b49 2f3d 0f8d 443e
00000330: feb6 61bc 821e 28be e453 4c3e 35fe 42bd
00000340: 07ef 953d d35d d03e 8f4d 2d3e ede0 e93e
00000350: 5bfe e43e 4436 933e bd6a 8c3e 272b 2cbd
00000360: 4e1b 2ebe aceb e33d fb9b b23e 1bd8 38bd
00000370: 38e1 353f 16f2 e2bc 04b4 463d d3c0 f23e
00000380: 7586 1d3e 8c78 1b3e 0771 10bb baa4 a1be
00000390: 05f7 8a3c 2b4b c93e a7d6 893e f2b1 033f
000003a0: 7f6a 5f3b 65e2 9f3e 0201 9b3d d7ca 71be
000003b0: 4fda 783e 8501 8bbe 3a98 5f3e 31a2 393d
000003c0: 1d3b b1be 2bc9 a6be 56fa 5c3e 6c3b eb3e
000003d0: 7ef2 ad3d 28b0 ae3e 9dbe d63e 37e9 e73e
000003e0: 1ca5 0dbd 0097 02be f605 863e a0fb bd3e
000003f0: 10e4 d8be 8771 cebd ce61 413e 6688 64bd
0.13773297 0.18273927 -0.0040446906 0.07837238 0.16316919 0.12498519 0.21168447 -0.07418145
-0.08877803 0.17709559 -0.0067433855 0.16220804 0.12027357 -0.0010975631 0.3164491 0.49941438
-0.017505622 -0.040113743 0.39781177 -0.24190973 -0.29824412 0.011288624 -0.05635 0.49741104
0.12155232 -0.10428167 0.40469828 0.17049177 0.29853493 0.14435355 -0.015536718 0.13039026
-0.08900817 0.14422576 0.1747195 -0.0074704555 -0.004892544 0.0153713 -0.49229842 0.040652208
0.17001843 0.14683297 -0.12423932 -0.29573044 0.466264 0.30803448 -0.036032084 0.20638424
0.2537964 0.018811205 0.14158978 0.29010698 -0.42593697 -0.0017826424 -0.1801456 -0.13793477
0.16880131 0.18009593 0.5394669 0.068760104 -0.14753175 -0.2767672 0.013390112 0.15158808
0.12805752 0.3512983 0.014491005 -0.014690336 -0.043741666 0.27386987 -0.30735606 0.37279353
0.056073245 -0.6431261 0.17517118 0.24672812 0.014421313 0.030409724 -0.051870897 0.3555823
0.013523735 0.24608615 0.15347105 0.3851959 0.26255527 0.18801884 0.0812443 0.106485665
0.30535877 0.3159413 -0.0044352734 0.37513134 -0.027423633 -0.0030204244 0.43535006 0.19926445
0.10712573 -0.016979372 0.3947486 0.03697158 0.24538541 0.007702539 0.09427197 0.24058242
0.40611243 0.14109996 0.4081852 -0.29056454 0.22073266 -0.27451855 -0.03861929 0.20940901
-0.008839235 -0.13651833 0.010047036 0.40989056 0.11341081 0.008676419 -0.4803338 0.20365693
0.09260565 -0.1731894 0.089223735 0.12387195 -0.025199687 0.08447823 -0.16660944 0.25527987
0.29736686 -0.025302224 -0.23894882 -0.008783806 0.23246558 -0.04075599 0.019814838 0.18887523
0.29122883 -0.025354909 -0.03356058 -0.02604427 0.49288347 0.13311294 0.24410635 0.10523015
-0.29024845 0.2766753 -0.0274408 0.1675468 -0.04185151 -0.11605525 0.09731986 -0.0019333732
0.27734053 0.1318494 0.0095987795 -0.14047876 -0.29259714 -0.28937998 0.4554026 -0.3620916
0.14290394 0.2293208 -0.49691218 0.124562636 0.33372825 -0.010931965 -0.15460846 0.46822897
0.42363253 0.31759098 0.33327195 0.3379837 0.16445199 -0.40082505 0.40017396 -0.25765207
-0.3287813 0.01966411 0.38898513 -0.14421347 0.31931946 0.26205105 -0.03362436 0.07931128
-0.018962184 -0.028723627 0.2168977 -0.133665 -0.032454513 0.27725926 0.3886169 0.38789946
-0.554732 -0.20957759 0.22301835 0.43114436 0.21496964 -0.08180053 -0.11167122 0.004383515
-0.3077253 0.35342258 0.042794447 0.19194435 -0.013776539 -0.16417888 0.19953877 -0.047605712
0.073209815 0.40696582 0.16924118 0.45679417 0.44725308 0.2875234 0.27425185 -0.04203334
-0.17002603 0.11128935 0.3488463 -0.04512797 0.7104678 -0.027703326 0.04851152 0.47412738
0.15383323 0.15182704 -0.0022040026 -0.3157099 0.016963491 0.3931516 0.2692158 0.514434
0.0034090576 0.31227413 0.075685516 -0.23612534 0.24302028 -0.27149597 0.21835414 0.045320693
-0.34615412 -0.32575354 0.2157987 0.45943773 0.08493517 0.34118772 0.419423 0.45295116
-0.03458129 -0.12752914 0.26176423 0.37106037 -0.42361498 -0.10080247 0.18884966 -0.055794142

fc2.weight f4 [128, 256]
00000000: 30ef cb3c 0a5e ae3d 1f6a 13bd b099 e63b
00000010: 9abd a03d 24fc e13c 69e4 c2bb 05de 1cbe
00000020: df85 623d e4a0 97be ad19 63bd abc7 50be
00000030: 4559 853e 3c3c 31bd 6c07 45bd 02cc afbc
00000040: 0023 f1bd c091 6f3c a178 8a3d 7b71 1bbe
00000050: 2875 8bbd 2316 803d 0f78 cd3c 5b61 58be
00000060: 881f e8bc 084b f8bd 8416 94bd 46d2 b2bc
00000070: a57b 4a3e 0f6d 39bd 4fbf 113d d7a7 48bc
00000080: 218a bbbd 87be 9d3c 5208 1dbc 4717 043e
00000090: 8567 113d f359 a2bc 2140 a4bc b6b6 98bc
000000a0: 6ef7 993d e801 9a3d d18c 863e 426d 6fbd
000000b0: 690d 0cbe 5b14 2fbe ed34 473d 9d28 8e3d
000000c0: 4f4b d93d 73ea 06bd dd16 b73d 63c3 94bc
000000d0: 08f9 bfbd 5110 7cbc d094 133c 6d03 64bc
000000e0: b6aa 61bd 49d7 4dbe 493f ac3d 9968 65bd
000000f0: 10fb e73c c5bc 28bd 3d0b 0bbd 3088 acbb
00000100: 14f7 ff3c dbe0 783d 4a3b 3c3c 793a f9ba
00000110: d1a7 69bd 39b3 2ebe b8a3 f3bd e9a2 543e
00000120: 830c fcbc 46a0 12be 6c94 ba3d b6fa cd3c
00000130: 8bd6 1d3d bcc6 b7bd 1efe b8bd 2a0d 95be
00000140: c28c 0dbd 0fc5 b8bd c8a5 11bd 994d 82bd
00000150: 2dc5 d9bc fb69 84be 0fb4 213e 6aa4 e03d
00000160: 6504 20be c7dc 29be cb19 163d f5a0 fd3c
00000170: 22a9 8d3b 3316 a5bc 1af3 c5bd 42f5 a23d
00000180: 8baa 29be 8864 38bd 4853 7abd 42c3 e73b
00000190: 6e0f 16bd ccfe 8ebd c70a ce3a 7eb7 2bbd
000001a0: 621e 9a3e 77ea 7f3d 4385 9dbe 34d3 78bd
000001b0: 5934 c83d c590 ceb9 efc9 e03c d352 993d
000001c0: 77d6 4dbd 87ad 593a a668 b7bc 0128 d83b
000001d0: b330 a2be b36d 11be 832c f6b9 14cc 7b3d
000001e0: 0473 95bd c53a c3bd 282f 7d3d d666 c03c
000001f0: 20ee 873c e8ed bf3c efa9 95bd d547 643d
00000200: 3cf5 833d 94b3 75bd 3c82 eebd a29e 21bd
00000210: 7a9e 5dbe 9eeb 6d3d d558 1b3e 3e4f 5ebd
00000220: 3407 293d 6f1c d8bd 217f e33e b25c c53d
00000230: 3605 ac3d a9bc 26be 4365 5fbe 8ee1 06be
00000240: 982d 453d 1a78 7b3e 0701 6dbd 7b1b 1b3c
00000250: b596 413e d5c9 bfbd 8316 9d3d 1cba 173d
00000260: a706 d43c ba08 36bd 6296 24bd 1d9a 2cbe
00000270: a863 103d bbf3 5abd 491d 503c 690e cfbd
00000280: e28a 6cbd f8d2 7d3c a2b2 96bd 7af9 333d
00000290: d813 3b3e eb2a 5c3d 1d8c 203d 1e4b 9b3e
000002a0: 96cc 2e3d 4c1b 823d db9b 393c d21c ebbc
000002b0: 2539 7c3c b251 17bd ca55 45bd e908 f3bc
000002c0: 575d 7ebd 4ab6 30bd f741 4a3d e32e 523d
000002d0: c2f5 2bbe 114b 7dbe e71f 313d 652a 503d
000002e0: 05d9 043e 04d2 f9bc 706b eb3d e415 a13d
000002f0: 6d30 66bd 1c37 6f3e 850b 103e 7194 183d
00000300: 7c87 4dbe 6592 1abb f171 ea3d 5e24 ff3d
00000310: 0375 c03b 588b ab3c 346f 15be d256 1c3b
00000320: 5b63 7bbe e298 f23d 2ff2 10bd 7223 c73c
00000330: 1d49 45bd aa6c 993d cf8d 98be a0a1 be3c
00000340: 41e1 d6bd dc63 d1bd 8f6b c9bc f06e febd
00000350: 4ff9 a9bb 5882 41be 715c b6bc 9918 993d
00000360: 6f6e 43be 8f98 3e3e f55a 1d3c 7c18 dbbc
00000370: b54a 1abe 90dc 8e3c af9c e0bd 15fc 71bd
00000380: 20d8 de3c 5a7b f3bc 6a6e a13c 056f 85bd
00000390: 1ac0 09bd f28f 85bd 3ef7 21bd 5cba 823d
000003a0: c39f 253d 2883 4abc 3bed 193e a342 33bb
000003b0: d58c eb3d 3f92 343d 66e8 043d 0d5e 41be
000003c0: 8493 d8bd 2d4f e3bc f176 5d3d d1d8 45be
000003d0: b2a7 ae3c 0f3b 1e3e 6429 09be 6dbb 493e
000003e0: 4a99 133d 9e90 0ebe 338e 993d 369b 4bbc
000003f0: 42b8 303c 9f48 83bb c719 783e a8e0 61be
0.024894327 0.0851403 -0.035989877 0.007037364 0.07848664 0.02758605 -0.005947639 -0.15319069
0.05530345 -0.29614937 -0.05544441 -0.20388667 0.2604467 -0.043270335 -0.04810278 -0.021459583
-0.11774254 0.014622152 0.067612894 -0.15180008 -0.06809455 0.06254222 0.025081662 -0.21130888
-0.028335348 -0.12123686 -0.07230857 -0.021828782 0.19773729 -0.045270022 0.035582837 -0.012247047
-0.091572054 0.01925589 -0.009584503 0.12899505 0.035499115 -0.019818282 -0.02005011 -0.01864181
0.075178966 0.07519895 0.2627931 -0.058453806 -0.1367699 -0.17097609 0.04863446 0.0694134
0.10610067 -0.032938432 0.08939908 -0.018159574 -0.09373671 -0.0153847495 0.009007648 -0.013916832
-0.055094443 -0.20101656 0.08410508 -0.056007955 0.028317958 -0.04119565 -0.033946265 -0.0052652583
0.031245746 0.060761314 0.011488745 -0.0019014619 -0.057044808 -0.17060556 -0.11896461 0.2076527
-0.030767685 -0.14318952 0.091103405 0.025143962 0.038534682 -0.089734524 -0.09032844 -0.29111606
-0.034558065 -0.09021961 -0.035558492 -0.06362457 -0.026583279 -0.25862107 0.15791343 0.109688595
-0.15626676 -0.16588126 0.03664569 0.03096054 0.0043231407 -0.020152187 -0.096655086 0.079569355
-0.16568963 -0.04501775 -0.06111458 0.007072837 -0.03663581 -0.069821924 0.0015719765 -0.04192304
0.30101305 0.062479462 -0.30765733 -0.060748294 0.097756095 -0.00039399244 0.02744004 0.074865006
-0.050253358 0.00083037507 -0.022388767 0.0065965657 -0.3167778 -0.14202003 -0.0004695394 0.06147392
-0.07297328 -0.09532694 0.06181255 0.023486536 0.016593039 0.023428872 -0.07307803 0.055732567
0.06443259 -0.059985712 -0.11645934 -0.039457925 -0.21642485 0.05808603 0.15170605 -0.05427479
0.041266635 -0.10552298 0.4443293 0.09636821 0.083994314 -0.16282906 -0.21815972 -0.1317198
0.048139185 0.24557534 -0.057862308 0.009467001 0.18905146 -0.09364668 0.076703094 0.037042722
0.025882078 -0.044441916 -0.04018248 -0.16855665 0.03525129 -0.053455096 0.012702295 -0.101101704
-0.057749636 0.015492193 -0.0735829 0.04393909 0.18269289 0.053751867 0.039196122 0.30330747
0.042675577 0.06352863 0.011328663 -0.028700266 0.015394484 -0.036943145 -0.048177518 -0.029667335
-0.062100735 -0.043142594 0.049379315 0.051314246 -0.16792968 -0.24735667 0.043243315 0.05082168
0.12973411 -0.030495651 0.114951015 0.078655034 -0.056198526 0.23360866 0.14066894 0.03725094
-0.20071214 -0.0023585793 0.11447514 0.12458108 0.005873324 0.020940468 -0.14593202 0.002385546
-0.2454962 0.11845566 -0.035387214 0.024308894 -0.04816543 0.07491429 -0.2979569 0.023270428
-0.104921825 -0.10224125 -0.02458742 -0.124235034 -0.0051871906 -0.18897378 -0.022260876 0.07475395
-0.19085096 0.18612884 0.009604205 -0.026745073 -0.15067561 0.017439157 -0.10967385 -0.059078295
0.027202666 -0.029721905 0.01970597 -0.06515316 -0.033630468 -0.06521596 -0.03954243 0.063832015
0.040435564 -0.012360372 0.15031902 -0.002735295 0.11501471 0.044084784 0.032448195 -0.18883534
-0.105750114 -0.027747715 0.05406851 -0.1932099 0.021320198 0.15452217 -0.13394696 0.19700404
0.03603486 -0.13922355 0.074978255 -0.012427142 0.010786118 -0.00400646 0.24228583 -0.22058356

fc2.bias f4 [128]
00000000: b960 043e 2ae5 bc3e 12f2 743e 1d1a 44bd
00000010: 4598 433e 226e e3bc 3ed0 cb3e f8db 873d
00000020: 6864 8e3e a98f ba3d b331 9ebc be2f b43d
00000030: e653 9b3e 04b4 1e3d 6c8f 573e a7a1 153e
00000040: a6f4 c73e 8054 c33e 8132 5d3d 1718 973e
00000050: ab55 443e bfe0 c4bd 6094 a33e 31b6 a43e
00000060: ad0b ae3e 3229 013e 1ebe 743e f1be 023f
00000070: 8d54 e33e 7dc7 443e d2f2 b7bc fd68 8a3e
00000080: 766a 033e c507 2c3e edd3 fe3e 5562 d03e
00000090: 6e11 2c3e 2d93 a8bd a1c6 933e 3b1a 2f3e
000000a0: b819 fc3e 1610 01bd bb80 4b3e d7fe 013f
000000b0: 9bba 713d 2d76 493e 0b0d db3d 3bdf b33e
000000c0: d40d cd3e 35ed 823e 4294 363e a0ec be3e
000000d0: ab83 3b3e 1717 d93d 25fe 83bc a14f b73d
000000e0: 2352 c33e 5877 bc3c 1307 f83e 3cf5 19be
000000f0: 160e e2bd 499a 9f3e e527 7e3e 0428 2ebd
00000100: b647 9a3e 5bbc 523e ea0c ed3d a0c3 603e
00000110: cd2d 473e e214 6a3e c164 9a3e 817c 8b3e
00000120: c66e 483e f2bb 983d df4d 0a3f b036 2ebd
00000130: 7404 ec3e 4938 3ebe 7888 f13d be9d bcbd
00000140: 6e13 673e 12ed 4a3e 82ae 14be 099a e03e
00000150: 4a33 0b3e b526 3a3d 3bef 0a3e 6744 863e
00000160: 1dc3 9b3e 7b84 e33e 42db 783d 8e14 7e3e
00000170: 754f 93bd c11e a2bd c77c 253e 8f11 d13e
00000180: 7c53 e7be 8d70 9b3e 5304 f03d e304 853e
00000190: 896d a23c 9247 a43a 86d2 853e 6b37 5c3e
000001a0: 6996 0bbd 50b9 943e 0228 6f3e 7ab1 043e
000001b0: 7388 963e 09f6 8c3e 7613 71be b94d 223e
000001c0: 5fb5 633e 242b f53e 71e0 903e b85c 9d3d
000001d0: 4ce3 2f3d 0d16 803d 00a8 443d 07f0 4f3e
000001e0: 41db 8f3d 7771 c03e ba32 7d3d 7d03 ac3d
000001f0: dae6 503e bb8e 3d3e 4e39 24bd 2488 603e
0.12927522 0.36893588 0.23920467 -0.047876466 0.19101055 -0.027762476 0.39807314 0.066337526
0.2781098 0.09109432 -0.019310808 0.087981686 0.30337447 0.038745895 0.21050805 0.14612447
0.3905384 0.38150406 0.054003242 0.29510567 0.19173305 -0.096131794 0.3194914 0.3217025
0.33993283 0.12613371 0.23900649 0.51072603 0.44400445 0.19216724 -0.022454653 0.27033225
0.1283358 0.16799839 0.49771062 0.4070002 0.16803524 -0.082311966 0.2886248 0.1709985
0.49238372 -0.03150948 0.19873326 0.5077948 0.05901585 0.19673987 0.10695847 0.3513125
0.40049613 0.255716 0.17829993 0.37289906 0.18311946 0.10600107 -0.016112396 0.08950735
0.38148603 0.023006126 0.48442897 -0.15034956 -0.11037843 0.31172398 0.24819906 -0.04251863
0.30132836 0.20579664 0.11574729 0.21949625 0.19451065 0.22859529 0.30154994 0.27243426
0.19573507 0.07457723 0.5402507 -0.042532623 0.46097147 -0.18576159 0.117936075 -0.092097744
0.22566006 0.19816998 -0.14519694 0.4386752 0.13593784 0.04544707 0.13567822 0.26224062
0.30422297 0.44437012 0.060755976 0.24812528 -0.071928896 -0.07916022 0.1616088 0.4083371
-0.4518088 0.30359307 0.11719575 0.2598029 0.019827621 0.0012533537 0.2613718 0.21505515
-0.03407899 0.29047632 0.23355106 0.12958327 0.29400977 0.2753146 -0.2354258 0.15849961
0.22237156 0.47884476 0.28296235 0.076837 0.042941377 0.06254206 0.04801178 0.20306407
0.07024241 0.37586567 0.061815955 0.08399103 0.20400563 0.18511479 -0.040093713 0.21926934

fc3.weight f4 [10, 128]
00000000: 12c6 9f3d fdee 8bbe 67dc 90bc 29d7 d4bd
00000010: cf75 aa3d 7308 46be 4947 c73d 7cb6 febd
00000020: b5e3 14bd 7fc9 90be 84ae c93d 72e0 493d
00000030: e5cb a13d cc21 fd3d ec32 46be 45f1 0cbc
00000040: 740d 933d d680 c4bd c784 333d 1fd8 3f3c
00000050: c07b 50be 954f 563d 4a88 e6bc 0cb4 debd
00000060: a909 b3bd 2e60 13be 2d0e 8abe 596d 523d
00000070: 6ebf 87be 8fd7 a83b 3289 29be 1991 4bbe
00000080: 7ff1 313d c76a cb3d 51ac 81bd 05bd aabe
00000090: 2728 fdbd d8c1 bd3d c9d5 0e3e 47cb 2abc
000000a0: 8232 9fbe e284 73be 2527 d03c 2a9c 8abe
000000b0: 658f 4bbe 81f2 fdbd cb91 653d 935a 523e
000000c0: b587 02bd 6c58 d23a 3949 943d fbb7 7cbe
000000d0: 7f34 c6be 57ce 9a3d b06d ea3d 9b6c 753d
000000e0: ba9e a73d f853 483d 881d c4be 1e20 0c3e
000000f0: 53eb 20bc 5740 1a3c f2ef 3b3d 4e05 e7bd
00000100: d118 72be 2431 da3c f449 4c3b c524 6abe
00000110: ea59 19be b7de cf3d f3ba 04be 38bd 0abe
00000120: 47e4 4bbe 1c5e fcba f5bc 563d b759 813d
00000130: 5448 e93d 4c3c 1f3c ad87 78be 3082 8a3d
00000140: 232d 53be 44c1 fc3d 3443 e73d 5a62 8fbe
00000150: 60c0 a23d 66ce 823d 1f58 953d fc5d a8be
00000160: 187b 3e3d 0b92 48be 1a69 f1bc c5fe 37bc
00000170: 4ea6 28be 9439 c93b 18e6 bfbe 190d 323d
00000180: 7e7f be3c 177d c53d 7917 a23d 1566 923d
00000190: 35f7 c33d cb2f 27bb 3cc3 ac3c ea3f b7be
000001a0: b275 f0bd 4875 d13c 730b 983d 544a dbbd
000001b0: 6cb8 dc3d d3e6 fa3d 136d cf3d d804 39bd
000001c0: 61f2 9abd 6bca 583d de1d 9f3d c1a0 cf3d
000001d0: 122a e73d 654a 8f3d 28ee 10bc dae3 f9bd
000001e0: 99c5 153e 971e d93d 099d 18be 0ad0 973c
000001f0: 3ed9 35bd e012 b9be 307e adbd fd1f 8a3d
00000200: a3cb 4cbd 7633 a4be d4d1 0f3e 911a 1f3e
00000210: 4485 a7bc 462c 663e 2a59 cc3b f8c5 8ebe
00000220: 19d9 f1be c6a2 9a3b 14e1 5bbd c539 763e
00000230: 8070 233e df20 dd3d fa08 253d 7c93 cebe
00000240: 1295 143c e862 d5be 7605 1abd a9c3 16bd
00000250: 6eb9 083d a73f e23d 49f5 b3bd 1718 413d
00000260: d132 6fbe 135c 6d3e c3dd 923d 61a6 8d3d
00000270: 31a8 4dbe 0143 c53c ef2d a23e 1806 353e
00000280: ba1a 023e f208 cabd 08df 07bf 73de 3fbd
00000290: 9360 d33d 28b4 243e f257 df3c 9a29 c7be
000002a0: d342 09bf a37d 953e 3173 c53d e3d1 29be
000002b0: 2476 0c3e 02ba 46be b111 8dbd 17b8 d4be
000002c0: 0578 ac3c aed2 16be a327 82be 9683 d0bb
000002d0: 69f7 403e 5e1b ae3d 9b4f 593d 25d9 8ebe
000002e0: 9080 e8be b228 3b3d 58ae 80be ec91 babe
000002f0: b52b 0d3d 4a20 48be e24a 9dbc 742f 88bd
00000300: 4734 01bf 0d8c 8bbc f48d 92be af34 343d
00000310: ec55 293d e4f5 45bd c6c7 c1be e771 50bd
00000320: 9fec 75be 051e ba3c 27d2 dcbe efa8 eb3d
00000330: 5c69 53bf 507e 84bd cb58 80be 4998 e7be
00000340: 44b3 09be 8111 ddbd 589c 6b3e 66ea a6bd
00000350: 6e16 50be 269c 2fbe d4ae 79bd 42c0 5cbe
00000360: 8923 09bd 80c8 1dbf 8948 e13d 384a 8b3e
00000370: 522b b6be 59a2 783e 76de 543e 1c70 03bd
00000380: 0309 cabd 9aed 913d 050e 863d a866 8dbe
00000390: 7eec 93be 9317 93bd 9698 e23d 161b 54bd
000003a0: c278 41be 6e96 623d 5673 64be d731 993a
000003b0: 70af 01bf b14e b2be de45 623d 9318 3c3e
000003c0: 8adc a83d ec5b 10bf 20f8 4dbe e817 90be
000003d0: 53f2 5ebe c7a5 8abe 8942 2d3e 3469 b6be
000003e0: 0303 8bbe e56b 47be cc5e 24be 50ae f9be
000003f0: 74b1 babe 2483 08be bcff f73d d2a7 8a3c
0.07801451 -0.2733077 -0.017683221 -0.10392601 0.083232515 -0.1933916 0.097303934 -0.1243715
-0.03634997 -0.2827873 0.09847739 0.049286313 0.07900218 0.12359962 -0.19355363 -0.008602445
0.071803 -0.09594886 0.0438278 0.011709242 -0.20359707 0.05232199 -0.02814116 -0.10874185
-0.08742077 -0.14392158 -0.2696394 0.051373813 -0.26513237 0.0051526497 -0.16556242 -0.19879569
0.0434432 0.099324755 -0.06331695 -0.33347335 -0.12361174 0.092654884 0.1394874 -0.010424442
-0.31093222 -0.2378116 0.02540929 -0.2707227 -0.1987892 -0.123997696 0.056047242 0.20542364
-0.0318677 0.001604808 0.072405286 -0.24679558 -0.38711926 0.075588875 0.114467025 0.059918027
0.081845716 0.048908204 -0.3830378 0.13684127 -0.009821731 0.009414754 0.045883127 -0.11280309
-0.23642279 0.02663476 0.003117201 -0.22865589 -0.14975706 0.10149901 -0.1296194 -0.13548744
-0.199113 -0.0019254121 0.052426297 0.0631594 0.113907486 0.009718966 -0.24270506 0.067631125
-0.20622687 0.1234155 0.11292115 -0.28004724 0.07946849 0.06387024 0.072921984 -0.32884204
0.04650411 -0.19586961 -0.029469062 -0.011230175 -0.1646969 0.006140897 -0.37480235 0.043469522
0.023254152 0.096429996 0.07914633 0.07148377 0.095686354 -0.0025510665 0.021089189 -0.3579095
-0.117411986 0.02556862 0.07424059 -0.10707536 0.10777363 0.122510575 0.10128226 -0.045170635
-0.07565761 0.052927416 0.077693686 0.10138083 0.11287321 0.069966115 -0.008845843 -0.12201662
0.14626159 0.10601538 -0.14903654 0.018531818 -0.04439663 -0.36147213 -0.08471334 0.067443825
-0.04999889 -0.32070512 0.14044887 0.15537478 -0.020449288 0.22477826 0.006236215 -0.27885413
-0.47235945 0.004719111 -0.053681448 0.24045475 0.15960884 0.10797285 0.040291764 -0.40346897
0.009068744 -0.41677022 -0.037602864 -0.03680769 0.033379965 0.11047297 -0.08787019 0.047142114
-0.23359229 0.23179655 0.07171204 0.069165 -0.20083691 0.024079802 0.3167567 0.17678106
0.12705508 -0.098649874 -0.53074694 -0.046843003 0.103211544 0.16084349 0.027263615 -0.38898927
-0.5361759 0.29197416 0.09641112 -0.16583972 0.13716942 -0.19406894 -0.0688814 -0.415467
0.021053324 -0.14728805 -0.25420865 -0.0063633425 0.1884438 0.085013136 0.053054433 -0.27900043
-0.45410585 0.045693107 -0.25133014 -0.36439455 0.03446551 -0.19543567 -0.019200746 -0.06649676
-0.50470394 -0.017034555 -0.28623927 0.043995555 0.041341707 -0.048330203 -0.37847728 -0.050889876
-0.24016045 0.022719393 -0.43129084 0.11506831 -0.8258264 -0.06469405 -0.25067744 -0.45233372
-0.1344729 -0.10794354 0.23008859 -0.08150177 -0.20321056 -0.1714941 -0.060957745 -0.21557716
-0.033481155 -0.61634064 0.11000163 0.27205062 -0.35579926 0.2428068 0.20787987 -0.032089338
-0.09865 0.07125397 0.06545643 -0.27617383 -0.28891367 -0.07182231 0.1106426 -0.051783644
-0.18893722 0.055319242 -0.22309622 0.0011687827 -0.5065832 -0.34825662 0.05524241 0.1836875
0.082451895 -0.5639026 -0.20114183 -0.2814324 -0.21772127 -0.27079603 0.16919912 -0.3562714
-0.27150735 -0.19474752 -0.16051787 -0.48765802 -0.3646351 -0.13331276 0.12109324 0.016925726

fc3.bias f4 [10]
00000000: b03a 16be 8434 63be 521a 1b3e f86d 6b3e
00000010: 2c66 55be cf79 c73d 02bc c43d 3c38 df3d
00000020: 800e 893d 7192 90be
-0.14670825 -0.22188002 0.15146759 0.22991168 -0.20839757 0.0974003 0.09606172 0.10899398
0.06692219 -0.28236726
